Convolution_best_model_conv.pth (torch, 413895 bytes, 24 tensors)

conv1.weight f4 [25, 2, 7]
000000 ff fa 90 3c 88 ec 95 3e 67 c1 10 3d b5 35 14 3e
       0.01769781 0.29282022 0.035340693 0.14473613
000010 fc 5d e5 bd 18 51 fb 3d 9b be 33 be 2f 2f 7f 3c
       -0.11199567 0.12271327 -0.17553179 0.015575214
000020 9f 86 9c 3c 11 98 58 bd 86 64 b8 bd 86 1e 58 3c
       0.019107161 -0.052879397 -0.09003548 0.013190871
000030 87 c4 2c be a4 53 5b be 37 9f 3a 3e f5 dd 0e be
       -0.16871844 -0.21418625 0.18224798 -0.13951857
000040 cb 29 07 be 7d 5d 4d 3e 83 ab 91 3d 19 fe a1 be
       -0.13199537 0.20055194 0.071127914 -0.31639174
000050 7e 32 41 3e 1b dd 94 be d6 10 57 be d1 62 8b bd
       0.18866917 -0.2907494 -0.21002516 -0.06805957
000060 71 7e 32 bd 96 2d 50 bd 98 b7 02 3e 8e e0 18 be
       -0.043577615 -0.050824724 0.12765348 -0.14929411
000070 3f 26 a8 bd b6 e5 8e be ed b4 88 3d f1 38 d9 bd
       -0.0821042 -0.2790963 0.06675134 -0.10606564
000080 fd 1e 3b bd 30 85 77 3d dd 1b 48 3e 00 33 e8 3d
       -0.04568385 0.060429752 0.19541879 0.113378525
000090 8b 78 65 be 9b b1 37 3e db b9 1a 3e 49 da ef 39
       -0.22409265 0.17938845 0.1510996 0.00045748267
0000a0 46 d3 20 3c a2 f4 96 be d0 54 75 be 2c 04 0b 3e
       0.0098159965 -0.29483515 -0.23958135 0.1357581
0000b0 9f 89 91 bc 48 96 37 be 54 80 3f 3e 9b f1 3b 3d
       -0.017765818 -0.17928421 0.18701297 0.04588471
0000c0 48 dd 4e bd 55 95 af bd 72 10 27 3e 4d 0a 5c be
       -0.050504 -0.08573405 0.16314867 -0.21488304
0000d0 01 f0 df bc 79 87 19 3d c4 20 39 3e 21 02 72 bd
       -0.027336122 0.037482712 0.18078905 -0.05908406
0000e0 cf 52 45 3e f2 38 17 be 53 e8 9a 3e b1 df 3a be
       0.1926987 -0.14767817 0.30255374 -0.18249394
0000f0 6b 40 37 be 20 8d 86 3e 58 11 89 3e eb a9 58 be
       -0.17895667 0.26279545 0.26771045 -0.21158569
000100 ee ac 82 3e c8 5a a3 3e 08 2b 91 3e 53 46 84 3e
       0.2552256 0.31905198 0.28353143 0.25834903
000110 b6 85 9e 3e 3c 44 5f bc b5 5c 7e 3e f1 c4 0b be
       0.30961388 -0.013627108 0.24840052 -0.13649346
000120 01 aa 7f bc c8 1d 8c bd 23 6b 38 3e 06 a0 d9 bd
       -0.015604497 -0.06841618 0.1800962 -0.10626225
000130 8c 57 67 be b0 f5 95 bd 8a c8 dc bc 3f 0b 71 3e
       -0.2259199 -0.07322252 -0.026951093 0.23539446
000140 1c a0 7d be a1 c2 96 3d 95 68 bb 3d c4 07 18 3e
       -0.24768108 0.07361341 0.09150807 0.14846712
000150 db 42 55 3d ee 9c 55 be fc 03 f8 bd 8d 22 0c 3e
       0.05206571 -0.20860645 -0.12110135 0.13685055
000160 50 6b 44 be 0d b5 5a 3e 84 5c ff 3d 82 cb 22 be
       -0.19181561 0.21358128 0.12468818 -0.15897945
000170 64 52 40 be e4 03 9e bd 8d 64 19 3e aa f9 ac 3d
       -0.1878143 -0.07715586 0.14979763 0.08446057
000180 6d b0 32 be e0 53 da 3c 35 26 f1 3d b0 71 47 3d
       -0.17450114 0.026651323 0.117748655 0.048692405
000190 ef f6 2d be b1 d9 ed bd 3f 28 4f 3c cd 79 66 be
       -0.16988729 -0.11613787 0.012643873 -0.22507401
0001a0 d2 7b 30 3e 12 6f 23 be 8e 14 64 be 4a 78 42 3e
       0.17234734 -0.15960339 -0.22273466 0.18991199
0001b0 30 01 d3 3d 2a 5d 32 3e b7 46 5b be 47 31 87 3d
       0.10302961 0.17418352 -0.21413694 0.06601196
0001c0 aa ca 1d 3c a8 14 d9 3d cb 8f 30 be 78 d5 9b 3e
       0.009630838 0.10599643 -0.17242353 0.304363
0001d0 88 48 b7 bd b2 26 89 3e bc 88 af bb fc 5e 04 be
       -0.08949381 0.26787335 -0.005356876 -0.12926859
0001e0 dc b6 90 bd 5f 63 86 3e 1d db 41 3e d4 1b 44 3e
       -0.07066128 0.2624769 0.18931241 0.1915124
0001f0 18 55 7b 3e 2a c4 8b 3e 3b 6a ca bd 17 da dd bd
       0.2454418 0.272981 -0.09883543 -0.10832613
000200 c3 31 c3 3d 51 b1 1e be 5d 30 27 be 60 02 3b 3e
       0.09530976 -0.15497328 -0.16327043 0.18262625
000210 71 50 29 be 92 aa a9 be 8c 17 95 bc 08 5d 74 bd
       -0.16534592 -0.33137947 -0.018199705 -0.059659034
000220 eb 0b 07 3e 6b e2 bf bd 6f cc 1c be 21 94 19 3e
       0.1318814 -0.09369358 -0.1531236 0.14997913
000230 9d 83 71 be 16 23 26 be a3 23 20 be d5 c9 80 bd
       -0.23585363 -0.16224322 -0.15638594 -0.062884964
000240 c3 f9 31 bd f1 52 52 be 7e f8 09 3e 04 70 01 be
       -0.043451082 -0.20539452 0.13473698 -0.12640387
000250 30 ae 03 be 6f 9b 7a be 55 ff 46 3e 22 2c 87 be
       -0.12859416 -0.24473356 0.19433339 -0.26400858
000260 11 16 84 3e 38 ce 96 3c d5 39 0b be 2c 7e 3e be
       0.25798085 0.01840888 -0.1359628 -0.18602818
000270 3a f5 26 be b9 ae 41 be 66 95 52 bd 90 3d 5b be
       -0.16304484 -0.18914308 -0.05141201 -0.21410203
000280 e5 e1 78 3e e0 c9 62 be d0 fa 37 3d a5 8b 52 3e
       0.24304922 -0.22147322 0.044916928 0.20561083
000290 d8 73 4d bd d5 2d 57 3e 94 68 91 3d 90 bf bc 3c
       -0.050159305 0.21013577 0.07100025 0.023040563
0002a0 f2 a2 a3 3c 9c e2 86 3e 34 4c 91 bb 8d 00 71 3e
       0.01997516 0.26344764 -0.004434133 0.23535366
0002b0 f2 ed f9 3d 83 44 4b 3e 55 4f 6d be b7 f7 85 3e
       0.122035876 0.19850354 -0.23174794 0.26165554
0002c0 c7 a2 9c bd bb 05 42 3e bf 6b 1d 3c 84 f7 32 3d
       -0.07648235 0.18947499 0.009608208 0.04369308
0002d0 d7 62 ad bd 56 b1 75 bd ba ee 85 be bb 0a fe bd
       -0.08466118 -0.059983574 -0.26158696 -0.124043904
0002e0 80 05 6e be 23 43 48 be d6 89 8b bd 76 2a 80 be
       -0.23244286 -0.1955686 -0.068133995 -0.25032395
0002f0 08 2b 53 3e 9e 6b 39 3e 9b 8c 2a 3e 27 ec 21 3d
       0.20621884 0.18107459 0.16655199 0.039531853
000300 e3 db 54 be 16 ae 61 3e d0 7c 6a bd 2f b3 99 bd
       -0.20787005 0.22039065 -0.057247937 -0.0750488
000310 ba 29 86 3e 3f 57 90 3e 1f 28 91 3e 62 30 b0 bd
       0.2620371 0.28191563 0.28350922 -0.08602978
000320 72 24 3d 3e d6 bd 38 be 9b 87 56 be 0a 23 ef 3d
       0.18470934 -0.18041167 -0.20950167 0.11676605
000330 db 24 63 3d 8a df 20 bd b2 ed 11 be 4c 38 10 bd
       0.05545507 -0.039275683 -0.1425083 -0.03520994
000340 62 f1 81 3e ff c0 55 3e ae e4 22 be f4 e7 d4 bd
       0.25379473 0.20874403 -0.15907547 -0.10395804
000350 24 00 29 be 4f 35 83 be fd ec 84 be 73 7b 0f 3e
       -0.1650396 -0.2562661 -0.25962058 0.14011936
000360 0e 77 26 3e d0 bc d6 bd e1 05 75 be 53 da 6f 3e
       0.16256353 -0.10485232 -0.23928024 0.23423128
000370 22 b1 88 3d 25 9f 8f bd 06 e0 e7 bd 65 42 85 bd
       0.066744104 -0.07012776 -0.11322026 -0.065068044
000380 47 9c 87 be 0a 63 01 3e 50 11 44 3e a9 89 34 be
       -0.26486418 0.12635437 0.19147229 -0.17630638
000390 24 ec 99 bc f1 07 89 be fb bd 87 3c 92 c6 94 bd
       -0.018789358 -0.2676387 0.016570082 -0.07264437
0003a0 ed a0 7d 3d 91 64 88 bd 1c 73 6e be 49 cc 9f bc
       0.06192105 -0.066598065 -0.23286098 -0.01950659
0003b0 a5 72 28 3e 8c e1 0f bc 0b 38 6b 3d 01 d9 73 3e
       0.16449983 -0.008781802 0.057426494 0.23813249
0003c0 2b 29 c0 3d 28 b6 f7 3d a4 65 7f 3e 36 14 28 3e
       0.09382852 0.120952904 0.24941117 0.1641396
0003d0 46 fa 0d bd 6a e9 22 3d 1b 88 1c bc 8d 4a c8 3b
       -0.034662507 0.039773382 -0.009553934 0.006112403
0003e0 2c 3e 75 3d e3 19 e7 3d 19 d0 a0 3e f8 72 31 3e
       0.059873745 0.112842344 0.31408766 0.17329013
0003f0 46 91 fb bd 92 cb f0 bd ff da 4a be f2 ae d4 bd
       -0.12283568 -0.11757578 -0.19810103 -0.10384931

conv1.bias f4 [25]
000000 6a d7 17 3d b1 e0 66 be 69 43 9a be 80 10 85 3e
       0.03707067 -0.2254665 -0.30129555 0.2598915
000010 0c 8c 5b 3e 0a 59 32 bc 53 bf 67 be e8 3e 53 3d
       0.21440142 -0.010885486 -0.22631578 0.051573664
000020 32 6e a3 bd 22 44 28 be 6d fb 67 3e cc 66 38 3e
       -0.079800025 -0.1643224 0.22654505 0.18007964
000030 76 c5 4c 3d 0c 0d 5e be 3a 9b a6 bd 88 d5 a0 bd
       0.049993 -0.21684664 -0.08135076 -0.07853228
000040 5a 4d 99 be 4c d8 78 3e 7e ce e9 3c 7f 1f 0e 3d
       -0.29941827 0.2430126 0.028540846 0.034698006
000050 d9 d6 0b 3e f5 c1 30 be 63 3f 1c bd ed 20 50 3e
       0.13656177 -0.17261489 -0.038146388 0.2032506
000060 4e 06 06 3e
       0.13088343

conv2.weight f4 [50, 25, 5]
000000 a9 00 62 3d a2 70 c7 3d fa ed 1a 3e 59 78 6d 3d
       0.05517641 0.0973828 0.15129843 0.0579761
000010 22 41 02 3c 65 32 29 3d 5b af 1f 3e 3d 13 6f 3d
       0.007950099 0.041307826 0.15594237 0.058367956
000020 f2 05 a5 3d 51 fc 0b 3e 47 b9 02 3e 58 a3 08 3e
       0.080577746 0.1367047 0.1276599 0.1334356
000030 3d e6 ce 3d 26 98 0c 3d ba 1c 2f 3c ac 77 25 3c
       0.10102508 0.034324788 0.010688001 0.010099333
000040 5b 62 18 bd 3a 08 22 bd 4e 62 70 3d a8 8d 2a 3d
       -0.037203174 -0.039558627 0.0586875 0.041639
000050 c7 71 01 3e 9b fe 9d 3d 54 04 b4 3d 79 2f 96 3d
       0.12641059 0.07714578 0.08789888 0.073332734
000060 7e e2 eb bb 77 07 90 3c db cf b4 3d 6c 17 7e 3d
       -0.007198631 0.017581685 0.08828708 0.062034056
000070 7c ea 2a bd b8 b1 2e bc 72 15 48 3d 77 b2 c4 bc
       -0.041727528 -0.010662489 0.048848577 -0.02401088
000080 72 d5 83 bc 68 ba 58 3d 00 f3 31 bd 85 61 b8 3c
       -0.01609299 0.052912146 -0.043444633 0.022507438
000090 47 c9 f2 3c 3a 81 b6 3d 0b b3 fd bb e2 d1 55 bd
       0.029636992 0.08911367 -0.007742291 -0.052202113
0000a0 99 39 16 3e 2b 7c ed 3d dd d5 d9 3d 08 e3 1f 3e
       0.1467041 0.11595949 0.10636494 0.1561395
0000b0 53 f9 ca 3d 74 ab c0 3d 4b 12 c2 3d e1 a4 4e 3d
       0.09910836 0.09407702 0.09476145 0.05045021
0000c0 78 82 d4 3d 13 ae 1d 3d cb 12 66 bc 41 fb b1 3d
       0.103764474 0.03849609 -0.0140425665 0.08690501
0000d0 a1 fc b4 3d 1b 7f a1 bd 24 59 c8 3c 66 f4 9c 3d
       0.08837248 -0.078855716 0.024456568 0.07663803
0000e0 4f aa 9d 3d e6 41 d3 bc d4 9f f9 bc 14 8c b6 bd
       0.076984994 -0.025788259 -0.03047172 -0.089134365
0000f0 0c 46 88 3d 98 54 bc 3d 64 38 0a 3d 2c a4 c1 3d
       0.066539854 0.091958225 0.033745185 0.094551414
000100 09 12 cf bb 1c ae e9 bc 2c eb 8a 3d 07 40 97 bd
       -0.0063192886 -0.028525405 0.06783137 -0.07385259
000110 ab 98 89 3d 92 83 2a bd ea d3 af 3d f4 63 91 3d
       0.06718572 -0.04162938 0.08585341 0.07099143
000120 dd b5 66 3d 55 69 83 bb 9d 72 51 3d cc fa 8c bd
       0.056325782 -0.0040103593 0.051134694 -0.06883773
000130 58 e5 45 bd 34 ab 75 3c 4c 32 9e 3d f8 35 3f 3d
       -0.048314422 0.014994431 0.07724437 0.046682328
000140 c8 28 f7 3d 49 82 7a 3d e4 54 d5 3c 21 16 c9 3c
       0.12068325 0.061159406 0.026041456 0.024546685
000150 44 a9 18 3c ff 62 6e 3d 55 cb 14 3d 99 63 d9 3d
       0.0093177 0.05819988 0.036326725 0.106147
000160 32 0d 09 3e 22 33 98 3d d4 5a 8a 3d 39 38 5e bd
       0.1338394 0.07431628 0.06755605 -0.054252837
000170 b8 a5 99 bd 70 f8 d4 3c c0 ba 0b bd a8 37 84 3c
       -0.075023115 0.02599737 -0.034113646 0.01613982
000180 89 2d 02 3e 8e 57 0f 3e a4 aa 07 3d ea 08 16 3e
       0.12712683 0.13998243 0.03312172 0.14651838
000190 e3 6e 88 3d 50 76 a3 3c 29 31 83 3d 91 64 2d 3d
       0.06661775 0.019953877 0.06405861 0.042332236
0001a0 c0 c3 64 bd 70 72 58 3c a5 82 95 bc de aa 99 bd
       -0.055850744 0.013210878 -0.018250773 -0.075032935
0001b0 50 44 ad bd 74 c7 43 3d 83 92 35 3d ff 4a 9a bd
       -0.08460295 0.047797635 0.044329178 -0.075338356
0001c0 eb 77 07 bd fe c6 ac 3d 43 19 7c bd 9e 66 3e 3c
       -0.033073347 0.08436392 -0.06154753 0.0116211455
0001d0 65 41 c8 3c 82 e0 8a bd 00 c3 5c bd 8f 99 a4 3d
       0.024445245 -0.06781103 -0.053896904 0.080371015
0001e0 8d 55 93 3c 41 62 3c 3d 8b 4e a7 3d da 50 10 bc
       0.01798513 0.04599214 0.08169278 -0.008808339
0001f0 0f 0a 92 bd 89 9b 92 bd 81 4c 23 bd ba 9f 3c bd
       -0.07130825 -0.07158572 -0.03986788 -0.046050765
000200 53 e0 b0 3b 1f 0b a1 bd da 04 db bd c8 4c 0a be
       0.0053978353 -0.07863449 -0.10694285 -0.13505852
000210 b0 e3 10 bc 52 d1 52 bd 55 c5 ce 3c eb ca 30 bc
       -0.008843347 -0.051469155 0.02524058 -0.010790567
000220 82 d6 aa bd 28 ba 13 3c e6 21 0e bc 4d 14 c8 bc
       -0.08341695 0.009016551 -0.008675074 -0.024423743
000230 36 91 a4 3d 55 12 c9 bc 8d 78 6e bc c5 70 a4 bd
       0.08035509 -0.024544874 -0.014555109 -0.080293216
000240 8b a4 5c 3d e7 28 55 bd 60 13 00 3c fe 03 ab bd
       0.053867858 -0.05204096 0.007817119 -0.08350371
000250 af c2 84 bd 18 2b b1 ba c4 4f a7 bd 06 4b 7d 3d
       -0.064824454 -0.0013516871 -0.08169511 0.061839126
000260 b4 0c b5 bd 04 f1 98 bb 32 42 1c bd ef 56 ed bc
       -0.088403136 -0.004667403 -0.038149066 -0.028972117
000270 30 34 90 3c ea 44 21 bd 9b 85 7d 3c ed 62 87 3d
       0.01760301 -0.039372362 0.015473749 0.066106655
000280 79 88 35 3c a4 82 13 bd 66 10 8f 3d a1 55 2d 3d
       0.011079901 -0.03601326 0.0698555 0.04231799
000290 8b c2 70 bd ec 5a 67 bd cb d9 71 bd 18 e5 cf bd
       -0.05877928 -0.056483194 -0.059045594 -0.10151118
0002a0 23 58 f9 bc 34 61 5e bd 40 e5 04 be 44 20 0d be
       -0.030437535 -0.05429192 -0.12978077 -0.1378184
0002b0 6a 25 81 bd 47 69 54 bd 56 49 5a bd bc 2e 06 bd
       -0.06305964 -0.051858213 -0.053292595 -0.032759413
0002c0 f6 4b 0c bd 32 fb 8a 3c ed 5d 51 bc 06 34 48 bd
       -0.03425213 0.016965482 -0.012778741 -0.04887774
0002d0 39 27 a2 3d 10 7f 16 3d 24 c1 f2 3c 51 65 85 3d
       0.079176374 0.03674227 0.029633112 0.06513465
0002e0 ed 51 95 3d 7f af a2 bc 7f b7 a4 bd bd b0 9d bd
       0.07291017 -0.019859074 -0.080428116 -0.07699726
0002f0 6d d3 7b 3c 3f 31 d6 bd 82 08 d4 bc cb cd 01 bd
       0.015370232 -0.10458612 -0.025882963 -0.0316904
000300 ca cd a6 bd 1f 16 95 bd e7 ff 83 3d 5a 96 fb bd
       -0.0814472 -0.0727961 0.06445294 -0.12284537
000310 eb 10 aa bd 6b 54 92 bc 12 f1 49 bd 47 fb ba bd
       -0.08304008 -0.01786252 -0.04930217 -0.091299586
000320 c7 20 79 bb f6 71 ac bd b9 27 d1 3b 58 72 06 3d
       -0.0038013922 -0.08420174 0.006382909 0.03282389
000330 49 37 e3 3b c0 e4 ea bd 8f 1d e0 bd ad 7b b5 bd
       0.0069340807 -0.11469412 -0.10943138 -0.0886148
000340 84 c7 3c bc c4 88 89 bd 9a a7 d1 bd 2e af cd bd
       -0.011522178 -0.06715539 -0.102370456 -0.100431785
000350 82 9a e4 bd d6 2a bb bb 58 0e 8e bc e8 60 de bc
       -0.111622825 -0.0057118936 -0.017340824 -0.027145818
000360 22 ce 09 bd fb a1 94 3d 9d 4e 3b bd f9 ef a2 3b
       -0.03364385 0.07257458 -0.04572927 0.0049724546
000370 88 12 06 bd 57 42 7f bd 46 74 dc 3c 5a d9 d6 3c
       -0.032732517 -0.062319126 0.026910912 0.026226688
000380 fe 89 39 3c a7 ec e6 3c 04 74 6c bd 82 bf ad 3b
       0.011324404 0.028189017 -0.05772783 0.0053023705
000390 0b 24 78 bd 80 b9 8a bd 49 15 1f 3c 08 40 ae bd
       -0.06058125 -0.067736626 0.009709665 -0.08508307
0003a0 ca 4e 96 3d 31 16 7b bb b8 c0 2c 3d 1b cd a5 bd
       0.073392466 -0.0038312788 0.04217598 -0.080957614
0003b0 d2 45 57 3d 61 59 82 3c e9 d7 40 bb 3e 61 76 3d
       0.05255682 0.01591176 -0.0029425567 0.06015133
0003c0 89 2f de 3c 5b c0 d4 bc 7e 6b 6d 3d f1 80 1e 3d
       0.027122276 -0.025970628 0.05796384 0.038697187
0003d0 5b bb 7c bd 2b 5a cb 3c a6 14 8e 3d a6 6f 8d bd
       -0.061702114 0.024823269 0.06937532 -0.06906061
0003e0 70 18 8d 3c 77 67 4a bc 0a b5 6a 3d 01 17 cc bc
       0.017223567 -0.0123537695 0.05730156 -0.024913313
0003f0 8b 44 2e bd 3d 7a 9a bd 90 a2 a2 bd 95 2c 3d 3c
       -0.042545836 -0.07542846 -0.079411626 0.011546274

conv2.bias f4 [50]
000000 00 d3 fc 3d 31 25 84 bc 8a e1 9d 3d f8 97 a4 bd
       0.123449326 -0.016131015 0.07709034 -0.08036798
000010 ce 5f 9e 3c 58 a4 82 3d 1c 36 07 bc 7a e8 a6 3c
       0.019332793 0.06379002 -0.008252647 0.020374525
000020 98 10 8f 3c 96 9f 47 bc ef bd 60 3d 01 b9 b1 3d
       0.017463967 -0.012184044 0.054868635 0.08677865
000030 92 eb 74 3c 3a e7 d8 3d 7d 3b 69 bb 3a a4 51 bc
       0.014948742 0.10590978 -0.0035588436 -0.012795502
000040 1c db 96 3c fe 2b 67 3c f6 f9 9e 3d c5 5c c8 3b
       0.018415026 0.01410961 0.0776252 0.0061145746
000050 a5 36 0b 3b 01 ff 90 bd b8 c9 5c bc 86 17 36 3d
       0.0021242287 -0.07079888 -0.013475828 0.044456027
000060 21 81 4d 3d c6 17 05 bb b0 bc 9a 3d 3b d1 12 bc
       0.050171975 -0.002030836 0.075555205 -0.008961017
000070 25 79 30 3c a3 ee d6 3b a3 08 63 3c 06 52 6b bb
       0.010771071 0.0065592094 0.01385704 -0.0035907044
000080 c8 45 3d bd c0 70 9f bd 9c b8 f0 3d 9d f9 ae bd
       -0.046209127 -0.07785177 0.117539614 -0.08543704
000090 ff 4d 5f bd fd 45 b0 3d a6 e0 10 be 96 8f 8f 3b
       -0.054517742 0.08607099 -0.14148197 0.0043811304
0000a0 ac ee f3 bb 99 99 a0 bd 82 44 1f bc e4 1a 2c 3e
       -0.0074442234 -0.078417964 -0.009720923 0.16807133
0000b0 aa 57 8b bd f5 0d 80 bc 68 31 e5 bd f7 9b 62 bc
       -0.0680383 -0.015631655 -0.11191064 -0.01383113
0000c0 0d a3 3a bb 3d e0 b5 bc
       -0.0028478533 -0.022201652

conv3.weight f4 [75, 50, 3]
000000 52 4c 42 bb c9 7b 87 3d 7e 59 82 bd 07 ce b7 bc
       -0.0029647541 0.06615407 -0.063647255 -0.022437109
000010 9b 3e 5e 3d 8d f1 67 3d 3d 10 28 bd 0d 9f fb ba
       0.054258924 0.056626845 -0.04103111 -0.0019197181
000020 3e 13 21 bd 4b ff 26 bd 67 74 87 3d d6 ce 84 bc
       -0.03932499 -0.04077081 0.06613999 -0.016211908
000030 69 b9 0f bd 0a e4 6f bd 48 1d 73 3d 06 54 d3 bc
       -0.03508893 -0.058567084 0.059354097 -0.025796901
000040 40 12 0f 3d d0 b7 91 bd cd 7a f3 bc 7d 88 20 3d
       0.034929514 -0.071151376 -0.029721642 0.039192665
000050 b0 b2 8c bc e7 a3 c8 bc f9 dd 72 3c db 6b 8a bd
       -0.017175049 -0.024492217 0.01482343 -0.06758853
000060 cf fb 90 3d 4c a4 86 bd f6 95 a5 3d f6 5b 01 3d
       0.07079279 -0.06574306 0.080852434 0.03158184
000070 8a 0a 83 3c 23 d9 b6 bc fc 65 a4 3d f3 91 8c bd
       0.015996236 -0.022320336 0.080272645 -0.06863775
000080 42 f3 18 bb bc c5 43 bd 86 3c 9b bc e8 1a 7d 3d
       -0.0023338352 -0.047795996 -0.018949758 0.061793238
000090 86 1a 9f bb a8 19 04 bb 26 61 9e 3d d6 db 10 3d
       -0.0048554568 -0.0020156894 0.07733373 0.035365902
0000a0 1f 7c 14 bc 02 30 47 3d 30 2c 21 3d ec 6c 43 bd
       -0.009062796 0.04862977 0.03934878 -0.047711298
0000b0 9f 8d 80 bd c5 00 87 bd df 70 80 3d 4a 3d 54 3d
       -0.06277012 -0.06591944 0.062715285 0.051816262
0000c0 b6 07 5f bd 96 de 31 3d 87 84 a0 bd ca 11 dd 3c
       -0.054450713 0.043425165 -0.078377776 0.026986022
0000d0 ea 8d 64 bd b4 2c 77 bd 32 65 80 bd d7 32 71 3d
       -0.055799402 -0.060345367 -0.062693015 0.058886375
0000e0 e6 e5 9c 3c 22 ac a1 3d 28 58 19 bd f5 30 00 3c
       0.019152593 0.0789416 -0.037437588 0.007824172
0000f0 28 9b 81 bd 78 72 41 bd 09 de 5d bd ff db 92 bc
       -0.06328422 -0.047228307 -0.054166827 -0.017927168
000100 b9 3d 87 3d f7 4a 31 bd c6 3f 9d bd 85 b4 18 3d
       0.066035695 -0.043284383 -0.076781794 0.03728153
000110 57 b8 99 3c 53 c6 a3 3c 97 03 83 bd 46 09 92 3d
       0.018764658 0.01999203 -0.06397169 0.07130675
000120 8a 24 51 3d 2e dd 5a 3d 6d 7e 9e bd a4 11 41 3d
       0.051060237 0.05343359 -0.077389576 0.047135964
000130 03 7f 83 bc 05 cf 2b 3d ed 10 d1 bc e9 e4 5f bd
       -0.016051775 0.041945476 -0.025520766 -0.054661665
000140 af 95 97 bd 96 51 81 3d db 46 a5 bb 7c 45 54 3c
       -0.07401597 0.063143894 -0.005043847 0.0129560195
000150 7d c7 7c bd 0e 98 4d 3d bf 36 9d 3d 0e 1c 11 bd
       -0.061713684 0.05019384 0.076764576 -0.035427146
000160 d1 f7 6f 3c 8a 34 0c 3a 93 14 9e 3d 0e 49 54 bd
       0.014646486 0.0005348405 0.07718768 -0.051827483
000170 20 4f 90 bd 25 67 54 bd f0 10 57 3d 62 f9 7a bd
       -0.07046342 -0.05185618 0.052506387 -0.061272986
000180 fa 3f 9c bd 90 8a 5b bd e4 1e 93 3d 78 96 a3 3d
       -0.0762939 -0.05359894 0.07183626 0.07987684
000190 3a 06 80 3d d1 61 2d bc 38 3c 97 bd 67 1b 92 3d
       0.062511876 -0.010582403 -0.07384533 0.07134133
0001a0 4c 15 db 3c be ea 96 3c 27 ae fe bc 66 e8 8f bd
       0.026743554 0.01842248 -0.031088902 -0.07026748
0001b0 9a a7 96 bd 2b b1 87 bd 07 93 93 3d a8 6a 13 bd
       -0.07356186 -0.06625589 0.072057776 -0.035990387
0001c0 b9 5a 17 3c c0 ee 8e bd b8 e7 0c 3c a2 57 3f bc
       0.009237939 -0.06979132 0.008600168 -0.011678608
0001d0 8f a9 6c 3d 71 fd 93 3c 21 f6 bd bc 45 d2 4c bd
       0.05777889 0.018065186 -0.023188652 -0.050005216
0001e0 d9 f3 73 bd e5 cc 37 bd 49 32 85 bd 1d d2 c6 bc
       -0.059558723 -0.044873137 -0.06503732 -0.024270112
0001f0 3a 38 89 bd a0 a4 99 bd 63 fd af 3c 76 a9 8f bd
       -0.067001775 -0.07502103 0.021483129 -0.07014744
000200 af 26 18 3c 16 f0 26 ba 8b c4 6c 3c a3 99 f1 3c
       0.009286567 -0.0006368173 0.014451156 0.029492205
000210 e7 73 ad 3c 47 97 06 bd 65 11 5a 3d d2 bf 83 3d
       0.02117343 -0.032859113 0.053239245 0.06433071
000220 47 68 89 3d 5e a4 e5 3c 9c ec a3 3d 62 52 6a 3d
       0.067093424 0.028032478 0.08004114 0.057207473
000230 ea b2 31 bd 67 04 82 3c 77 b1 9a bd 50 29 27 3d
       -0.043383516 0.01587124 -0.0755338 0.040810883
000240 65 aa 9c 3b 00 3f ea 3c e0 ed 4f bd 67 e3 3e bc
       0.004781055 0.028594494 -0.050763965 -0.011650897
000250 18 06 c8 3c fa a1 88 bd 0d cb a5 bd e0 cd e4 3c
       0.024416968 -0.066715196 -0.080953695 0.0279302
000260 82 17 8a bd 08 d4 39 3c 5d 2e fa 3c 87 3f 7e bd
       -0.06742765 0.011342056 0.030539686 -0.062072303
000270 47 5a 67 3d 2b 6c 74 3d 81 fb 2a 3d 38 b8 87 3c
       0.05648258 0.05967347 0.04174376 0.016567335
000280 59 82 f1 3c a3 bc af 3b 58 77 8f 3d 67 3d d6 3c
       0.0294811 0.0053630634 0.07005185 0.026152326
000290 44 1e 0f 3d 01 1a cf 3c 10 74 04 3d d4 17 46 bd
       0.034940973 0.025280954 0.03233725 -0.048362568
0002a0 22 6d 9f 3d 58 50 13 3a e5 21 62 3c e0 12 96 bd
       0.07784487 0.0005619577 0.013802026 -0.07327819
0002b0 cb b6 62 3d 5e 7f cd 3c 85 87 8e bb 29 b1 0a bd
       0.055350106 0.025085147 -0.0043496513 -0.03386036
0002c0 a9 f5 84 bd 69 a4 00 bd 57 f4 2a 3d 25 95 6f bd
       -0.064921685 -0.031406794 0.041736927 -0.058491845
0002d0 8a 54 4c 3d c6 26 e2 3c 4f 21 64 3d 8e 29 75 3d
       0.04988531 0.02760638 0.055695828 0.059854083
0002e0 13 dc 11 bd 15 49 81 bd 3a f8 09 bd 59 7b a0 bd
       -0.03561027 -0.063127674 -0.033683993 -0.07836027
0002f0 32 61 5e bd 69 31 b6 bc a8 1b ab 3b 74 0e 47 3c
       -0.05429191 -0.022240357 0.0052218027 0.012149442
000300 28 24 53 bd f5 69 6e 3d fa 0c 83 bd 99 6d 92 3d
       -0.051548153 0.058206517 -0.063989595 0.0714981
000310 ae ca 92 bd a7 8f dd bc ab e5 d3 bc a8 cd 25 3c
       -0.07167564 -0.027046038 -0.02586635 0.010119833
000320 83 47 6d 3d ca 73 92 3c 55 2c 8a bd 88 06 9c bd
       0.057929527 0.017877478 -0.06746737 -0.07618433
000330 54 16 2c 3d 2d 66 8e 3d ca 4d 34 3d a9 84 bf ba
       0.04201348 0.06953082 0.044019498 -0.0014611679
000340 2e d2 8a ba a8 8b 96 bd cb cf 0b 3d 7f da d9 3c
       -0.0010591203 -0.07350856 0.034133714 0.026593445
000350 45 46 4c bd 9f b4 3b 3d b3 26 99 bb 23 fa 84 bd
       -0.0498717 0.04582655 -0.0046738028 -0.06493022
000360 67 cf 0a 3c dc a6 31 3d 4d ca 96 3d 81 07 a0 bd
       0.0084723 0.04337202 0.073628046 -0.07813931
000370 6d 0d d7 bb 14 f5 a6 bd b6 20 67 3d 79 41 be 3c
       -0.00656288 -0.08152214 0.05642768 0.02322458
000380 f9 12 36 bc c7 81 34 3d d0 ac a0 bd 86 78 00 3d
       -0.011112922 0.044069078 -0.07845461 0.03136494
000390 23 0c 2d bd 69 c8 ad 3c e3 ea 79 bd ce 88 54 3d
       -0.042247903 0.021213727 -0.06101502 0.05188828
0003a0 96 fa db bb 40 f8 9d 3d d4 33 a0 bd 3f a5 ea bc
       -0.006713222 0.077133656 -0.078223854 -0.028643249
0003b0 5d 93 15 bc 4d 45 1c bd 3f d0 7b bc 4e 5e 2d bb
       -0.009129372 -0.038152028 -0.015369474 -0.0026453915
0003c0 5f 75 e1 3c 07 39 82 bc cf 42 39 bd 16 52 19 bd
       0.027521787 -0.015896333 -0.04522973 -0.0374318
0003d0 7a 09 97 bd e6 ff b4 3c e2 2d 60 bd 76 52 a3 3d
       -0.073748544 0.022094678 -0.054731257 0.079747126
0003e0 b1 bf 80 3d 01 2e 41 3d d3 b9 97 bc 9b ed 2a 3c
       0.06286562 0.047163013 -0.018521225 0.010432626
0003f0 61 4b 52 bb 94 30 91 3d c6 74 88 3d c2 47 9f bc
       -0.0032088386 0.07089344 0.06662898 -0.019443396

conv3.bias f4 [75]
000000 ac 9f c1 bc 7e 0e 8b bd 9f b4 9a 3d 10 a5 ad 3d
       -0.023635708 -0.067898735 0.07553982 0.08478749
000010 cd ff ed bc ff 95 ff 3c 76 80 ea 3d 87 c7 86 3d
       -0.02905264 0.031199453 0.11450283 0.065810256
000020 cf 75 bb bd 09 c5 e9 bd a9 a5 cd 3b 83 aa 01 be
       -0.091533296 -0.114145346 0.0062758517 -0.12662701
000030 12 5a 8d 3d c8 57 53 3d 1e 82 10 3e c5 71 3b bd
       0.06901945 0.051597387 0.14112136 -0.045762796
000040 f8 96 04 3d 60 d5 2a 3d 1e 73 55 3d ba f3 06 3c
       0.032370538 0.041707397 0.052111737 0.00823682
000050 69 06 bb bb cc 51 85 bd 73 f8 6b 3d 69 40 f2 bc
       -0.0057075513 -0.06509742 0.057609987 -0.029571729
000060 0f 18 f4 bd 54 1c 72 3d 77 32 02 3d 9b b7 d2 bc
       -0.11918651 0.059109047 0.03178641 -0.025722316
000070 ba e4 8f 3d 8e 49 91 3d 4f d0 6a bd 8c 11 e7 bb
       0.07026048 0.070941076 -0.057327565 -0.0070516523
000080 88 95 b2 3d 4e c5 d0 3b 02 18 9c 3d a5 6e 8b 3c
       0.08719927 0.006371177 0.076217666 0.017020533
000090 83 ac 72 bd 39 23 08 3e 38 77 20 3b 19 1b b1 3c
       -0.05924655 0.13294686 0.0024485122 0.021619366
0000a0 1a f3 90 3d 17 b0 b2 bc 64 88 90 3d 71 6b 0c bd
       0.07077618 -0.021812482 0.070572644 -0.03428215
0000b0 d2 48 34 bd 3b c9 26 bd 4d b2 8a bd 18 0e a1 3d
       -0.04401476 -0.040719252 -0.067722894 0.07864016
0000c0 33 e4 e3 3d 73 29 45 3d c5 09 ad 3d a8 6d a4 3d
       0.1112751 0.048135232 0.08449129 0.08028728
0000d0 0c 22 83 3d d2 57 a3 3a ca d3 c5 bd fb 67 6b 3a
       0.06402978 0.0012462086 -0.09659536 0.0008980033
0000e0 f3 6f 24 3d fe 3c 2d bd 65 d9 ec 3b e0 c4 42 bd
       0.040145826 -0.042294495 0.007228064 -0.047551036
0000f0 cb e3 2f bd a2 2b ca 3d 90 2e 97 bd d2 1a 61 bc
       -0.04294185 0.098716035 -0.07381928 -0.013739305
000100 bb fe 81 bd ff 93 7d bd 75 83 0a bd b5 aa da 3c
       -0.06347414 -0.06190872 -0.033816773 0.026692728
000110 1d 62 0a bc bd 85 77 3d 4e 2b e6 bc 31 d1 2b bd
       -0.008446244 0.060430277 -0.028096821 -0.041947547
000120 e3 2d 88 bd 52 fc 06 3e e9 6a 1c 3d
       -0.06649377 0.1318219 0.038187895

conv4.weight f4 [100, 75, 3]
000000 23 3e ef 3c 8d 46 c3 bc f8 d7 32 bd 8e 1f e4 bc
       0.029204434 -0.023837352 -0.043662995 -0.027847078
000010 5a ee 2f 3d 9f 60 c6 3c 6d 0a 25 3d 9e d6 7c 3c
       0.04295192 0.024215994 0.040293146 0.015432028
000020 a0 2c de 3d 78 16 a7 3d b9 57 8e bb 96 00 86 3d
       0.10848355 0.081585824 -0.0043439534 0.065430805
000030 4a 0c 8a 3d 69 32 a9 3d 11 9d 20 3c 8d e5 24 3d
       0.06740625 0.08261568 0.009803073 0.04025798
000040 a3 d1 9e bc 34 d3 b7 3c 78 7c 39 3c ff 1e b8 3d
       -0.019387072 0.022439577 0.01132118 0.08990287
000050 21 a8 12 3e d0 53 2b 3d a0 c5 e3 3d 00 7a ab 3c
       0.14321949 0.041827977 0.11121678 0.020932198
000060 2b 2b e1 3d 93 a0 b0 3d fd 54 7a 3c 3a 1e ab 3d
       0.10994562 0.08624377 0.015279052 0.08355375
000070 af 5b aa 3d 2f da a7 3d a9 db 6b 3d a9 6f 79 bd
       0.083182685 0.08195912 0.05758253 -0.060897503
000080 ab 79 72 3c 7e 4a e9 3d 6a 39 a6 ba 86 04 bc 3c
       0.014799516 0.113911614 -0.0012681906 0.022951376
000090 4d d8 33 bd c4 ed 01 bd 96 d4 9e 3d b8 03 07 bd
       -0.043907452 -0.03172089 0.07755391 -0.03296253
0000a0 c3 45 19 3d 89 c9 0f 3c f4 60 f7 3d 3a de a0 3d
       0.037420046 0.008776077 0.12079039 0.07854886
0000b0 2a a9 aa 3d ab 5f 0a 3d df e1 67 3b 63 62 9b bc
       0.08333047 0.033782642 0.0035382432 -0.018967813
0000c0 c5 df 8f bc 81 1d 49 3c fe da 1b 3c 67 79 87 3c
       -0.017562756 0.012275101 0.009512661 0.016537381
0000d0 f8 90 7c 3c 9a a2 6b 3d c7 25 a1 3d 82 60 95 3d
       0.015415423 0.057528116 0.078685336 0.07293798
0000e0 d4 af 50 3d be b8 82 3d d2 89 13 bd fe e0 28 3d
       0.050948933 0.06382893 -0.036020108 0.041230194
0000f0 51 23 f7 3d 00 7e 3c 3d 02 9e 0f 3c 09 08 2c bc
       0.12067283 0.0460186 0.008765699 -0.010499963
000100 a3 93 7c 3c 12 fa ac 3c 89 48 13 3b e5 d1 3b bd
       0.015416059 0.021115337 0.0022473654 -0.045854468
000110 3d 9e 7f bc d2 cb 53 3d 33 20 b0 3d f8 08 03 3d
       -0.015601692 0.05170805 0.085998915 0.031990975
000120 8a cb f5 3c 96 bc dc 3d d8 c1 b5 3d 3c c3 45 bc
       0.030004282 0.107781574 0.088748634 -0.012070473
000130 1e 54 88 bc 34 a0 22 bd 2f fc 02 3e f7 5c 4c 3c
       -0.016641673 -0.039703563 0.12791513 0.012473336
000140 ab 63 0c 3e 45 10 83 3c 23 65 c7 bb 1a cb 11 bd
       0.13709895 0.015998969 -0.0060850545 -0.035594083
000150 52 fe 74 3d 5d 9a cd 3d a0 a0 fe 3d 65 f2 2b 3d
       0.05981285 0.10039208 0.124329805 0.041979212
000160 56 fd 32 3d 20 25 0d bd 14 bd 4d 3d 2b fd 2a 3d
       0.04369863 -0.034459233 0.050229147 0.041745346
000170 c7 38 5c 3d 21 1b 33 bd 23 31 d7 3b e4 37 81 bd
       0.053765085 -0.043727044 0.006567137 -0.063094884
000180 63 16 99 3d 5c 5d c1 3d 97 c0 08 3d a2 4a 02 3d
       0.07474973 0.09441635 0.033386793 0.031809457
000190 6c 1f 11 3d 0a e1 90 3d 52 21 45 bd 34 5a b0 3b
       0.035430357 0.07074173 -0.04812748 0.005381847
0001a0 45 d7 da 3c 59 9d c0 3c 1c f3 a4 3d b6 80 a2 3d
       0.026713977 0.02351253 0.08054182 0.07934706
0001b0 01 26 55 3b 89 46 97 bb 27 d9 94 3c 66 bd e8 3d
       0.0032523873 -0.0046165627 0.018169953 0.1136425
0001c0 79 0e be 3d be 54 12 3e e9 1d 8e ba 82 50 1b 3d
       0.09280104 0.14290139 -0.0010842654 0.037918575
0001d0 c0 e4 07 3d 70 6f 33 bd cd 0c 31 ba d4 79 56 bd
       0.033177137 -0.043807447 -0.00067539216 -0.052362278
0001e0 81 1c 60 3c f4 c1 6b bd 2f cf 9c bc 2f b6 c1 3b
       0.013678671 -0.057558015 -0.019141762 0.0059116106
0001f0 ce 9e 4e 3d e0 6a 1c bc d8 c0 3d 3d 45 3b 03 3d
       0.050444417 -0.009546965 0.04632649 0.032038946
000200 c7 b3 74 bd 9f 83 e3 3d 4a 34 3a 3d 4d 06 99 3d
       -0.05974176 0.11109089 0.045460023 0.07471905
000210 e0 27 b1 bb 05 32 37 3d b8 16 c1 3d 0a 63 46 3d
       -0.005406365 0.044725437 0.094281614 0.048434295
000220 c3 d0 aa 3d 73 9d e3 3d 78 08 82 bc 05 0a 21 3d
       0.083405994 0.111140154 -0.015873179 0.039316196
000230 23 1a 7d bc 09 76 b9 bc 00 dd 0d 3c 01 43 57 3d
       -0.015448126 -0.022639291 0.008658648 0.052554134
000240 f2 d3 98 3d 84 9f 04 3e 17 4e 86 3d e9 5f d6 3d
       0.074623 0.12951475 0.06557863 0.10467512
000250 5f 67 09 3e 62 82 05 3e 14 a4 98 3d a6 b0 bb 3d
       0.13418339 0.13038018 0.074531704 0.091645524
000260 4a 3f e3 3d 9d 6b 70 3d 89 5b a0 bc 6b 8c c2 bc
       0.11096056 0.058696378 -0.019574897 -0.023748597
000270 e9 09 be 3d 61 68 2b 3d ab 48 a8 3d 20 09 aa 3b
       0.09279234 0.04184759 0.08216985 0.005189076
000280 74 d6 2c 3d 77 dc d0 3d 0f 2e 49 3d 1f ad d9 3d
       0.042196706 0.101983 0.04911619 0.10628723
000290 2d 35 1e 3d 01 d5 79 bc f4 df fb 3c a3 f1 f7 bc
       0.03862493 -0.015248538 0.030746438 -0.030266589
0002a0 06 b0 f9 3b af 20 72 3c 93 4b a3 3d 31 49 36 3d
       0.0076198606 0.0147783 0.07973399 0.044503395
0002b0 bc 49 a4 3c 96 33 70 3c 20 9d a8 3b 48 af 55 3c
       0.02005469 0.014660737 0.005145684 0.013042279
0002c0 85 26 e9 3c 67 9c 15 3b 12 51 80 b9 89 d4 80 3b
       0.02846075 0.0022828819 -0.00024474465 0.003931586
0002d0 c8 4a d3 3d 68 eb 00 3e df a2 df 3d 9f f3 98 3d
       0.10316998 0.125898 0.10919737 0.07468342
0002e0 eb 2c 1b 3d 2d 0b c2 3d 22 81 42 3d 31 b5 36 3d
       0.037884634 0.09474788 0.047486432 0.04460639
0002f0 12 5f 8b 3d 27 2e 54 3d 23 a1 bb bb 9f b0 e1 3c
       0.068052426 0.051801827 -0.005725996 0.02755004
000300 0d 54 61 3d 66 d4 b4 3d aa e7 76 3d 97 10 7b 3d
       0.055011798 0.08829574 0.060279526 0.06129512
000310 c5 0e 71 3c aa fe 38 3b 84 22 35 3d cf d7 d3 3d
       0.014712994 0.0028227963 0.04422237 0.103438966
000320 79 00 81 ba 40 ab cb 3c 85 d3 16 3d 51 dc 77 3d
       -0.000984206 0.024861932 0.036822814 0.060512844
000330 f8 e9 78 3d da 88 dd 3c b6 35 05 3d 61 b9 64 bd
       0.060770005 0.027042795 0.032521926 -0.055840854
000340 1a b0 71 bd 63 6f 3c bd b2 92 7e 3c 92 06 00 3e
       -0.059005834 -0.046004664 0.015537905 0.12502506
000350 93 2b b2 3d 05 d8 2e bd 0e 23 55 3d 5b 5a 87 bd
       0.086997174 -0.04268648 0.052035384 -0.06609031
000360 9f 78 d3 3b 21 a8 ad 3d b8 03 24 3d ee a2 70 3d
       0.006453588 0.08479334 0.04004261 0.05874913
000370 4b 77 89 3d 26 5e 0d bc 50 2e 90 3d 59 3d 0f 3d
       0.067122065 -0.008628404 0.070400834 0.034970615
000380 b7 e8 0d bd 09 71 28 3d 78 22 50 3c 6c a1 7e bd
       -0.034645762 0.041123424 0.0127035305 -0.062165663
000390 f0 9d b0 3b 50 89 67 bd 1a c4 dc bc 27 56 71 3d
       0.0053899214 -0.056527436 -0.026948977 0.058920052
0003a0 78 cb 1c 3b ab 16 88 3b 3c 61 1c 3c e0 c2 05 3d
       0.0023924988 0.004153093 0.009544667 0.03265655
0003b0 83 44 39 bd da 55 3f bd 3c 3d 1e 3d ce 84 dc bc
       -0.045231353 -0.046712734 0.038632616 -0.026918795
0003c0 76 b2 30 bd 34 09 97 bc 45 6d b4 3c 89 06 92 3c
       -0.043138944 -0.018437006 0.02202476 0.017825382
0003d0 6b 28 83 bc 9c 53 0c 3d 89 d0 b1 bc 76 f4 02 bd
       -0.016010484 0.034259424 -0.021705883 -0.031971417
0003e0 85 4b 5e 3d 6b 1f b3 3c f0 95 cb bc 30 61 62 bd
       0.05427124 0.021865567 -0.02485177 -0.055268466
0003f0 12 f3 61 3b a7 87 ae bc 6d 88 3d bd 52 30 20 3d
       0.0034477157 -0.021304918 -0.046272684 0.03910858

conv4.bias f4 [100]
000000 86 7a f8 3d 23 2a 86 ba d5 63 87 bc 1a cc cf bd
       0.121327445 -0.0010235946 -0.016527096 -0.10146351
000010 ee ce 94 bd a8 8e a7 3d 98 28 e7 bd b8 db 6f bb
       -0.07266031 0.081815064 -0.112870395 -0.0036599468
000020 1f b4 ea bd 1f 8a bf bc ab aa ac 3c a5 36 65 3d
       -0.114601366 -0.023381291 0.021077475 0.055960316
000030 ed 31 e7 3d da c6 01 bd cf 7b 59 bc 01 86 2f bc
       0.112888195 -0.03168378 -0.013274147 -0.010713101
000040 c4 52 57 bd 27 62 8e bd f4 f6 f3 bc f3 8e 22 3d
       -0.052569166 -0.06952315 -0.029780842 0.03968711
000050 19 5b 8e bc 0f d9 83 bd 37 c6 60 bd dc 86 6d 3d
       -0.017377423 -0.06437885 -0.054876532 0.05798994
000060 5e 0f fc bd 95 30 b5 3c da 24 7e bd b2 4c 62 bd
       -0.123076186 0.022117892 -0.062046863 -0.055248924
000070 c2 17 c4 bc 11 60 d3 3d 68 a6 1a 3b 6f 7a cb bd
       -0.02393711 0.103210576 0.002359772 -0.09935462
000080 87 20 bc 3c 1d 8b 83 3d 92 7d 22 3d 39 e6 d7 bd
       0.022964729 0.06423018 0.039670534 -0.10541958
000090 42 a8 81 bd e9 76 75 bd b9 77 cf 3c aa c3 87 3d
       -0.06330921 -0.059927855 0.025325643 0.06629117
0000a0 23 9b 98 bb 05 a4 ad 3d c7 f3 01 3d 20 26 8f 3d
       -0.0046571656 0.0847855 0.031726625 0.06989694
0000b0 7d fe ba 3d 1d 9c 97 3d 84 84 11 3d 32 bb 7a 3d
       0.09130571 0.07402823 0.035526767 0.06121368
0000c0 5f 10 d1 bc 0f 56 85 bd 78 58 62 bc b1 80 c6 3d
       -0.025520502 -0.06510555 -0.013815038 0.09692515
0000d0 56 cc 96 3d 21 b4 a7 3d 0c e2 ad bc d2 f2 ce bd
       0.07363193 0.08188654 -0.021225952 -0.10104908
0000e0 53 02 83 38 26 aa 16 3e f2 b1 89 bd 42 51 86 bd
       6.247e-05 0.14713344 -0.067233935 -0.065584674
0000f0 a1 5d 66 bd 31 30 0f 3d e9 0e 03 3d 12 de ba 3b
       -0.056241635 0.03495807 0.03199664 0.0057027424
000100 f7 64 8a bd d1 ac af 3d 9e 90 c8 bd 16 06 ac 3c
       -0.06757539 0.08577884 -0.097932085 0.020998996
000110 bc 9e 0c bd b6 46 7b 3d 6f 9a 56 bd 8b e7 63 bd
       -0.03433107 0.061346732 -0.052393373 -0.05564074
000120 6e 28 67 3d 68 62 98 bb 38 ba 85 bc 35 24 f5 bd
       0.05643504 -0.004650403 -0.016324148 -0.119697966
000130 52 35 05 bd 85 21 dc bd 28 4c d5 3d f7 ad 3c 3d
       -0.032521553 -0.10748581 0.10414916 0.046064343
000140 09 b6 81 bd 66 32 a2 bc 27 30 87 bd 7b 76 e5 3d
       -0.063335486 -0.019799422 -0.06600981 0.11204239
000150 67 fb 69 bc d9 3f 71 bd 43 a2 8c bd 12 a6 53 bc
       -0.01428113 -0.05889878 -0.068668865 -0.012918012
000160 96 e7 a1 3d 48 39 80 bd 33 61 bc 3d 0a aa 7b bd
       0.079055 -0.062609255 0.09198227 -0.06144146
000170 dc 65 5f 3d 9b 61 c2 3d 32 5d f3 bd b0 4b cc bc
       0.0545405 0.09491273 -0.1188301 -0.024938434
000180 92 53 b3 bb 41 bc 64 bd 28 15 a8 bc 9d cb 65 3d
       -0.005472609 -0.055843595 -0.0205179 0.056102384

conv5.weight f4 [150, 100, 3]
000000 2e 00 ee bd f0 d9 e6 bd 46 d1 9a bd 3f d5 56 3d
       -0.11621128 -0.11272037 -0.07559447 0.05244946
000010 20 82 69 3d 39 ab 21 3d 75 02 a4 bc 8e 20 2c bd
       0.057008862 0.03946993 -0.020020703 -0.042023234
000020 65 46 ae ba 6c c2 99 bd 04 5a 0a bd 2a 42 54 bd
       -0.0013296126 -0.07507786 -0.03377725 -0.05182091
000030 c4 bf d5 bd 72 37 e6 bd 68 1c c9 bd 85 50 d8 bc
       -0.10436967 -0.11241044 -0.09819871 -0.026405582
000040 0f 33 05 bc a6 18 3c bd 01 c4 26 bd 52 7b ed bd
       -0.008129849 -0.045921944 -0.040714268 -0.11595787
000050 85 b0 04 bd 67 d5 39 3c b4 43 3b 3c 7b 68 c4 3c
       -0.032394905 0.011342383 0.011429716 0.023975601
000060 56 e0 9d 3c c6 4d 0c 3d e9 ac 56 bd 3d d0 f4 bb
       0.01927201 0.034253858 -0.052410994 -0.007471113
000070 be b8 30 bd b9 f7 2e bd 54 68 33 bb dc 9c 2c bd
       -0.043144934 -0.042716715 -0.0027375417 -0.04214178
000080 3f 94 05 bd f4 1b ab 3c 37 d1 f5 bc b1 01 b3 3c
       -0.03261208 0.020887353 -0.030006988 0.021851392
000090 f4 78 17 bd e9 b8 62 bc 0f c8 bb bd f1 5d e8 3c
       -0.036980584 -0.013838031 -0.091690175 0.028365107
0000a0 fc e0 8f 3c 6b 4f d0 3c b4 e1 df 3c dd a4 24 3d
       0.017563336 0.025428494 0.027329303 0.04019629
0000b0 06 8d 4f bc 0b 9a e8 3c 57 8e bf 3b 51 1e 32 3b
       -0.0126679 0.028393766 0.0058458257 0.0027178715
0000c0 11 6e 86 bd 6d c4 8c bd 8d d7 7f bd dd c8 ea bd
       -0.06563962 -0.06873403 -0.062461425 -0.11464093
0000d0 c1 59 e2 bc 46 86 15 bd f7 92 be bc 14 03 28 bd
       -0.027630689 -0.036505006 -0.023263438 -0.04101856
0000e0 bd 9d 1e 3d 7c f1 40 3d 94 00 9f 3b ec 52 6b 3b
       0.03872465 0.047105297 0.004852364 0.003590758
0000f0 2e ee d0 bc cf d6 d3 bd f5 64 96 bd 54 3a 6a 3c
       -0.025504198 -0.10343706 -0.07343475 0.014296133
000100 41 eb e1 ba 32 fd 48 bd c8 79 64 3d cd 0e 18 3d
       -0.0017236249 -0.04906959 0.055780202 0.03712349
000110 95 29 5a bd a1 3b 91 bd c3 57 98 bc 17 48 eb bc
       -0.053262312 -0.070914514 -0.018596536 -0.028720899
000120 cc be c5 bd 72 3d f0 bd 4c f1 88 bd 82 7a f3 bc
       -0.09655532 -0.1173047 -0.06686649 -0.029721502
000130 42 92 ce bb e1 dd 0e bd 30 02 d6 bb 81 6e bd bc
       -0.0063040564 -0.03487957 -0.0065310225 -0.023123981
000140 4f d1 e0 bd e9 2f 6e bd 28 ae a2 bd 26 26 e0 bd
       -0.109774224 -0.05815116 -0.07943374 -0.10944776
000150 34 95 91 bd d2 43 7f bd f8 7e 45 bb 24 8f 1d bd
       -0.07108536 -0.062320538 -0.0030135494 -0.038466588
000160 38 14 3e bd 3f ea d1 bc 2d 42 c9 bc 7a 4a 70 bc
       -0.046406 -0.025624393 -0.024567688 -0.014666194
000170 58 02 07 3d 84 d4 c5 bb 34 7a ae bc 77 f3 c0 bc
       0.03296122 -0.0060372967 -0.021298505 -0.023553593
000180 c1 dc 91 bc 07 3f 23 bd f7 e5 1c bd 4d 48 9f bc
       -0.017805459 -0.03985503 -0.03830525 -0.019443655
000190 a8 2e ca bc 23 c8 66 bb 26 b0 63 3d 2d 37 64 3d
       -0.02468045 -0.0035214506 0.05558791 0.055716682
0001a0 a0 40 ca bc 64 b4 e6 ba 85 2c 8e 3c 10 62 04 3d
       -0.024689019 -0.0017601368 0.017355213 0.032320082
0001b0 f2 1a 23 3d d3 2b 35 bd 3a fe 7d bb 9b 75 e4 bc
       0.03982062 -0.044231247 -0.0038756267 -0.02788811
0001c0 45 f6 a9 bd d6 54 d5 bc 32 32 5c bd d8 de 90 bd
       -0.08298925 -0.02604143 -0.053758807 -0.07073754
0001d0 d2 3a 65 bd bd 49 2b bd 0c ba e2 bb ed 09 5f bc
       -0.0559643 -0.04181837 -0.006919151 -0.013613206
0001e0 67 a5 61 bd 1c 69 3d bd 10 51 35 bd f0 2d 17 3d
       -0.05508938 -0.04624282 -0.04426676 0.036909044
0001f0 c1 b1 4b 3c e1 e2 ce 39 bb 82 d9 bd da 27 e1 bd
       0.012432517 0.0003946042 -0.10620638 -0.10993929
000200 d5 55 4a bd 76 59 73 bd 9e f0 bb bd 98 e3 d0 bd
       -0.049398262 -0.05941149 -0.091767535 -0.1019966
000210 f8 86 a1 bd 32 c8 93 bd 27 d2 d6 bc 3c 32 93 bd
       -0.07887071 -0.072159186 -0.026223255 -0.07187316
000220 1b 47 75 bd 2b d3 de bd 3d 0e d9 3c 4e 46 1b bd
       -0.059882265 -0.10880121 0.026496047 -0.037908845
000230 5d 6e 53 bd c8 08 b5 bd 9b 4e a8 bc 98 65 d3 bc
       -0.051618923 -0.088395655 -0.020545295 -0.02580528
000240 ef 6a 45 bc b0 9f 65 3d a6 6a 11 bc 90 8b 24 bd
       -0.012049421 0.056060493 -0.008875525 -0.04017216
000250 68 8d 45 3d c3 ca 66 3d aa 7c f0 3c fd cb 50 3d
       0.04823056 0.056345712 0.02935632 0.05097579
000260 3f e6 66 bd 14 c0 81 bd 5b 8f c4 bd 03 8e 81 bd
       -0.056371924 -0.06335464 -0.095976554 -0.06325915
000270 52 0a 9c bc ca 4e d9 bd a9 aa e2 bd c5 68 93 bd
       -0.01904789 -0.10610731 -0.11067707 -0.071977176
000280 73 a2 cf bd 73 1c a4 bb 5f 9b 80 bd 8b a4 a7 bd
       -0.101384066 -0.005008274 -0.06279635 -0.08185681
000290 f3 eb 36 bd 98 75 6a 3d dc ea 89 bc fa 07 58 bc
       -0.044658612 0.057241052 -0.016835622 -0.0131854955
0002a0 9c 96 e9 bd b0 76 c5 bd b5 28 af bd 61 4e ea bd
       -0.114056796 -0.096417785 -0.08552686 -0.11440731
0002b0 bc 97 9e bd c1 52 83 bd 7c d3 13 bd 60 54 e4 bb
       -0.07743785 -0.064122684 -0.03609036 -0.006968066
0002c0 dd c9 ef bb 80 00 d3 3c e0 3c 67 3a 08 90 66 3d
       -0.007317765 0.025757074 0.0008821022 0.056289703
0002d0 75 d6 03 bd a4 61 b1 bd 6e 67 e4 bc 15 1a e9 bd
       -0.032186944 -0.086612016 -0.02788135 -0.11381928
0002e0 89 43 92 bc cb c5 96 bd 9c 8a 2e bd 71 b2 39 bc
       -0.017854469 -0.07361945 -0.042612657 -0.011334048
0002f0 92 e5 3b bd c6 b3 d1 3c fd c1 1d bd 1a 7d 6b 3d
       -0.045873232 0.025598418 -0.03851508 0.057492353
000300 91 0c 4e 3c 06 5e 60 bd df fe 5b bc 48 c9 2f bd
       0.012576238 -0.054777168 -0.013427465 -0.042916566
000310 54 56 05 bd ed 8e a2 bd 6a 1c b4 bd 03 66 27 bd
       -0.032553032 -0.07937417 -0.08794482 -0.04086877
000320 63 dd ea bd cb b4 5b 3d e0 08 0a bd a3 dc 5b bd
       -0.114680074 0.053639214 -0.03369987 -0.053677212
000330 74 6e 1d 3d 5e 2a 53 3d bf af 29 bc 8b 50 1c bd
       0.038435414 0.051554076 -0.010356843 -0.03816275
000340 e7 55 e9 bd 56 9d 97 bd 2e e5 54 bd 42 b7 63 bc
       -0.11393338 -0.07403056 -0.051976375 -0.013898673
000350 5b 7b 39 3d fe fe 48 3d 68 a5 8d 3c 2a fa 48 bc
       0.045283657 0.049071305 0.017290786 -0.012266675
000360 c5 0b c4 bd 49 45 a9 bd c2 31 83 bd 0c dd 9a bd
       -0.09572557 -0.08265168 -0.06405975 -0.075616926
000370 08 27 89 bb d4 36 83 bd 33 53 28 3d ff 71 69 3d
       -0.004185561 -0.06406942 0.04109497 0.05699348
000380 2f ae 1b bd cc e8 d0 bc 4c 1b 1a bd fd 74 89 bd
       -0.03800791 -0.025501631 -0.03762369 -0.06711767
000390 af 75 45 3d c1 9b 11 3c 63 47 0d 3c b3 7f 5c bd
       0.048207935 0.008887232 0.008622977 -0.05383272
0003a0 25 fc 4f bd 45 3c 42 bd f7 e7 ab bd 25 28 a8 bc
       -0.050777573 -0.04742076 -0.08393853 -0.020526955
0003b0 60 d3 e9 bd cf 74 56 bd 54 c1 6c bd e0 d5 22 bc
       -0.1141727 -0.05235749 -0.05780156 -0.009938687
0003c0 fb 5c 64 bd f3 21 ea bd f9 ab 7f bc 03 47 52 bc
       -0.055752736 -0.114322565 -0.015604966 -0.012834313
0003d0 ed 03 a4 bc 0b 3b c5 3c 06 63 d9 38 dd 36 91 3c
       -0.020021403 0.024076005 0.00010365811 0.017726356
0003e0 d3 c3 12 bd 93 65 ad 3b 2c 78 ab 39 00 ea 8c ba
       -0.035831284 0.0052916496 0.00032705197 -0.001075089
0003f0 e9 67 8b bc a3 84 85 bb 01 ee c1 bb 7c b3 c0 bd
       -0.017017322 -0.0040746494 -0.005918265 -0.09409234

conv5.bias f4 [150]
000000 7d 2f 31 bd e2 8d c2 3c af 6c d8 3d e1 ec c6 bc
       -0.04325818 0.023749296 0.10567605 -0.024282875
000010 1e 1e 76 bd 33 43 f1 bc f3 44 ab bd 9f db 95 bd
       -0.060087316 -0.029450988 -0.083627604 -0.0731728
000020 50 f5 b9 bc c8 36 14 3d 9a f6 f2 3c dd 82 2a bd
       -0.022699982 0.036185056 0.029658604 -0.041628707
000030 67 1b ee bd cf d7 a1 3b e6 db a4 3d a1 62 b2 3c
       -0.1162632 0.0049390565 0.08049755 0.021775546
000040 5f 52 7d 3d 6a 97 d0 3d 7d 07 30 bd 41 2f ae 3d
       0.061846133 0.1018513 -0.04297589 0.08505107
000050 ff 85 5a 3d 49 50 47 bd 73 1f e3 bd 54 3a 22 3d
       0.053350445 -0.04866055 -0.11089983 0.039606407
000060 02 d8 51 bd 80 42 33 3d 15 9d 8e bd 8c 56 8a 3d
       -0.05123139 0.04376459 -0.06963555 0.06754789
000070 59 a8 90 3d 2b 51 00 bd 8d 0e d2 bd 6b c5 ac bd
       0.0706336 -0.031327408 -0.102566816 -0.08436092
000080 db f9 c2 bd c3 f9 e8 3d 12 a4 1a bd 75 3b c7 3d
       -0.095203124 0.11375763 -0.037754126 0.097281374
000090 20 a8 fe 3c 0d ac 3d 3c 0e 1d 4d bd a7 52 bc bb
       0.031086028 0.011576665 -0.050076537 -0.0057471576
0000a0 6c 6e 4e 3d 27 e9 e3 3c c4 8f a8 3c 43 f6 30 bd
       0.050398275 0.027821137 0.020576365 -0.043203603
0000b0 90 42 08 bd bb b9 8c bb 0a 79 d2 3c ac 7d c9 bd
       -0.033266604 -0.0042946017 0.025692482 -0.09838423
0000c0 42 89 1b bd 62 ac 20 bd c4 2e 1f b9 66 05 07 bd
       -0.037972696 -0.039226897 -0.00015180843 -0.032964133
0000d0 fe 3d 5b 3d 47 72 d5 39 a8 f3 10 3c 12 5d 77 3d
       0.053525917 0.0004071167 0.008847155 0.060391493
0000e0 86 92 93 3c 0a cf 3e 3d 32 40 5d bd 76 2c 08 bd
       0.018014204 0.046584167 -0.0540163 -0.033245526
0000f0 e9 f3 e4 bc 43 84 5c 3d e4 f6 67 bb 34 e0 f7 bc
       -0.027948337 0.053837072 -0.003539496 -0.030258276
000100 fe 64 7f 3c ac e0 a9 bd 81 44 92 bd e7 8b 83 bd
       0.015588043 -0.08294806 -0.07141972 -0.06423169
000110 3f 2a 55 3c 0f c5 f5 3d a5 bd bc 3d c2 c2 38 bc
       0.013010561 0.120004766 0.09215859 -0.011276903
000120 ac e8 3e 3d b7 28 cd bc ae a9 b5 bc 07 6b 8c bd
       0.046608612 -0.025043828 -0.022175636 -0.06856351
000130 e0 de c6 3c 68 72 99 3d 72 5b c3 bd 30 ce 12 bc
       0.024276197 0.074925244 -0.09538926 -0.008960292
000140 ce 63 1a 3d c9 16 77 bd 32 d1 20 bd be 22 9a bc
       0.037692837 -0.060324464 -0.039262004 -0.018815394
000150 b0 d3 23 bd c7 f2 87 bd cd 30 0c 3e 4d 99 01 bd
       -0.039996803 -0.06638103 0.13690491 -0.03164034
000160 e3 94 eb bd 56 36 8d ba b1 d9 9d 3d a7 60 69 3d
       -0.11503007 -0.001077364 0.07707537 0.05697694
000170 ef c0 82 3c 69 d2 80 bd 2e 3f 91 bd 1d 54 d3 3c
       0.015961139 -0.062901326 -0.07092129 0.025796944
000180 b0 8f 1b bd 10 7d 45 3d 6a df 77 bc e6 ee 20 bd
       -0.037978828 0.048214972 -0.01512895 -0.03929033
000190 79 d8 60 3c a8 84 e2 3b a7 6b 64 bd 23 0e d8 3d
       0.013723486 0.0069127865 -0.055766728 0.10549571
0001a0 75 5b a8 3c 22 db 0e bd 97 f7 fb bb a3 86 9e bd
       0.020551423 -0.03487695 -0.007689427 -0.07740524
0001b0 1f 44 29 bd 00 8b db 3d 53 eb d8 bc 53 de 01 bd
       -0.04132473 0.107198715 -0.026479399 -0.031706166
0001c0 88 1e 52 bd a3 b5 2f 3d 79 8c d7 bd a5 38 98 3d
       -0.051298648 0.04289783 -0.1052484 0.07432679
0001d0 5b aa a2 bd 44 b6 dd bc e0 3d 12 bc a2 5c c3 3d
       -0.07942649 -0.02706445 -0.008925885 0.09539153
0001e0 9a f8 d9 3d a6 44 89 bd d3 8f c1 bd 33 68 bb bd
       0.1064312 -0.06702547 -0.094512604 -0.09150734
0001f0 63 61 6b bd 03 12 fc 3c 11 ea 10 bd e4 47 15 3d
       -0.057465922 0.030770307 -0.035379473 0.036445513
000200 20 b4 a8 bd b1 14 bd 3d 30 d9 6a 3c 1d aa 2b 3d
       -0.08237481 0.09232462 0.014334008 0.04191028
000210 8c 25 30 bd e8 89 a5 bd d6 5a 19 bc 36 e4 41 3d
       -0.043004557 -0.08082944 -0.009360036 0.04733678
000220 9e 48 f7 ba 8e c6 4b bd 78 12 d9 bc 85 97 5a 3d
       -0.0018866246 -0.049749903 -0.026498064 0.053367157
000230 86 0b 8b 3c 34 ad 52 3d 22 80 2c bc d2 a4 85 3d
       0.016973268 0.05143471 -0.010528596 0.065255776
000240 3d 1e 57 3c 8b d1 fc bb c9 47 ee bc a1 c1 e0 3c
       0.013129768 -0.007715409 -0.029086964 0.02743608
000250 14 cc 45 3d 1f 65 e0 3c
       0.048290327 0.027391968

batchnorm1.weight f4 [30]
000000 00 00 80 3f 00 00 80 3f 00 00 80 3f 00 00 80 3f
       1.0 1.0 1.0 1.0
000010 00 00 80 3f 00 00 80 3f 00 00 80 3f 00 00 80 3f
       1.0 1.0 1.0 1.0
000020 00 00 80 3f 00 00 80 3f 00 00 80 3f 00 00 80 3f
       1.0 1.0 1.0 1.0
000030 00 00 80 3f 00 00 80 3f 00 00 80 3f 00 00 80 3f
       1.0 1.0 1.0 1.0
000040 00 00 80 3f 00 00 80 3f 00 00 80 3f 00 00 80 3f
       1.0 1.0 1.0 1.0
000050 00 00 80 3f 00 00 80 3f 00 00 80 3f 00 00 80 3f
       1.0 1.0 1.0 1.0
000060 00 00 80 3f 00 00 80 3f 00 00 80 3f 00 00 80 3f
       1.0 1.0 1.0 1.0
000070 00 00 80 3f 00 00 80 3f
       1.0 1.0

batchnorm1.bias f4 [30]
000000 00 00 00 00 00 00 00 00 00 00 00 00 00 00 00 00
       0.0 0.0 0.0 0.0
000010 00 00 00 00 00 00 00 00 00 00 00 00 00 00 00 00
       0.0 0.0 0.0 0.0
000020 00 00 00 00 00 00 00 00 00 00 00 00 00 00 00 00
       0.0 0.0 0.0 0.0
000030 00 00 00 00 00 00 00 00 00 00 00 00 00 00 00 00
       0.0 0.0 0.0 0.0
000040 00 00 00 00 00 00 00 00 00 00 00 00 00 00 00 00
       0.0 0.0 0.0 0.0
000050 00 00 00 00 00 00 00 00 00 00 00 00 00 00 00 00
       0.0 0.0 0.0 0.0
000060 00 00 00 00 00 00 00 00 00 00 00 00 00 00 00 00
       0.0 0.0 0.0 0.0
000070 00 00 00 00 00 00 00 00
       0.0 0.0

batchnorm1.running_mean f4 [30]
000000 00 00 00 00 00 00 00 00 00 00 00 00 00 00 00 00
       0.0 0.0 0.0 0.0
000010 00 00 00 00 00 00 00 00 00 00 00 00 00 00 00 00
       0.0 0.0 0.0 0.0
000020 00 00 00 00 00 00 00 00 00 00 00 00 00 00 00 00
       0.0 0.0 0.0 0.0
000030 00 00 00 00 00 00 00 00 00 00 00 00 00 00 00 00
       0.0 0.0 0.0 0.0
000040 00 00 00 00 00 00 00 00 00 00 00 00 00 00 00 00
       0.0 0.0 0.0 0.0
000050 00 00 00 00 00 00 00 00 00 00 00 00 00 00 00 00
       0.0 0.0 0.0 0.0
000060 00 00 00 00 00 00 00 00 00 00 00 00 00 00 00 00
       0.0 0.0 0.0 0.0
000070 00 00 00 00 00 00 00 00
       0.0 0.0

batchnorm1.running_var f4 [30]
000000 00 00 80 3f 00 00 80 3f 00 00 80 3f 00 00 80 3f
       1.0 1.0 1.0 1.0
000010 00 00 80 3f 00 00 80 3f 00 00 80 3f 00 00 80 3f
       1.0 1.0 1.0 1.0
000020 00 00 80 3f 00 00 80 3f 00 00 80 3f 00 00 80 3f
       1.0 1.0 1.0 1.0
000030 00 00 80 3f 00 00 80 3f 00 00 80 3f 00 00 80 3f
       1.0 1.0 1.0 1.0
000040 00 00 80 3f 00 00 80 3f 00 00 80 3f 00 00 80 3f
       1.0 1.0 1.0 1.0
000050 00 00 80 3f 00 00 80 3f 00 00 80 3f 00 00 80 3f
       1.0 1.0 1.0 1.0
000060 00 00 80 3f 00 00 80 3f 00 00 80 3f 00 00 80 3f
       1.0 1.0 1.0 1.0
000070 00 00 80 3f 00 00 80 3f
       1.0 1.0

batchnorm2.weight f4 [50]
000000 00 00 80 3f 00 00 80 3f 00 00 80 3f 00 00 80 3f
       1.0 1.0 1.0 1.0
000010 00 00 80 3f 00 00 80 3f 00 00 80 3f 00 00 80 3f
       1.0 1.0 1.0 1.0
000020 00 00 80 3f 00 00 80 3f 00 00 80 3f 00 00 80 3f
       1.0 1.0 1.0 1.0
000030 00 00 80 3f 00 00 80 3f 00 00 80 3f 00 00 80 3f
       1.0 1.0 1.0 1.0
000040 00 00 80 3f 00 00 80 3f 00 00 80 3f 00 00 80 3f
       1.0 1.0 1.0 1.0
000050 00 00 80 3f 00 00 80 3f 00 00 80 3f 00 00 80 3f
       1.0 1.0 1.0 1.0
000060 00 00 80 3f 00 00 80 3f 00 00 80 3f 00 00 80 3f
       1.0 1.0 1.0 1.0
000070 00 00 80 3f 00 00 80 3f 00 00 80 3f 00 00 80 3f
       1.0 1.0 1.0 1.0
000080 00 00 80 3f 00 00 80 3f 00 00 80 3f 00 00 80 3f
       1.0 1.0 1.0 1.0
000090 00 00 80 3f 00 00 80 3f 00 00 80 3f 00 00 80 3f
       1.0 1.0 1.0 1.0
0000a0 00 00 80 3f 00 00 80 3f 00 00 80 3f 00 00 80 3f
       1.0 1.0 1.0 1.0
0000b0 00 00 80 3f 00 00 80 3f 00 00 80 3f 00 00 80 3f
       1.0 1.0 1.0 1.0
0000c0 00 00 80 3f 00 00 80 3f
       1.0 1.0
