Convolution_best_model.pth (torch, 22067 bytes, 18 tensors)

conv1.weight f4 [7, 2, 1, 10]
0.06406009 0.13745466 -0.030640246 0.048421483 0.16885985 0.16659898 -0.11260515 -0.16087341
-0.024211219 -0.06373404 -0.0014706451 -0.03904685 -0.21673876 -0.035229858 -0.17745622 0.20955808
0.11352354 0.2245142 0.019612715 0.1842366 -0.12849174 -0.09427046 -0.19464952 -0.026639506
-0.042522755 0.21029806 -0.12628372 0.031195285 0.12118122 -0.1562789 -0.09046593 0.1740931
0.14106655 0.08016285 0.009202827 -0.13976182 0.09173747 -0.17754222 0.09095891 0.10410397
0.18708146 0.13838668 -0.057480875 -0.1719371 -0.06706417 0.1446546 0.16375037 0.17419344
0.12363505 -0.12621444 0.15967353 -0.1624809 -0.032708112 -0.050113156 -0.0118436115 -0.18970719
0.073777586 0.06973432 -0.053171944 -0.056629788 -0.052243333 0.21067871 0.12943767 -0.12637621
0.04345045 0.07663534 0.20220882 0.04388996 -0.14014654 -0.16624385 -0.12527576 -0.22936305
0.0915961 -0.13181537 -0.10623786 -0.018924737 -0.00029301297 0.10484255 0.07842165 -0.0741442
-0.16694611 0.04949871 -0.15328278 0.035897404 0.18924356 -0.010856672 -0.020302095 -0.15348452
-0.09193732 0.0630252 0.07830093 0.071427464 0.19783753 -0.029955594 -0.050219465 -0.15056801
0.02219339 -0.105181776 0.09942403 -0.18186912 -0.22259943 0.06946358 -0.22291254 0.21560118
-0.0249879 -0.21697539 -0.041487355 0.06982842 -0.18066666 -0.06943525 0.058860064 -0.17934519
-0.056625888 0.04190503 0.16800998 0.17583588 -0.117230244 0.22338662 0.071760714 0.056348294
0.037581746 0.14149053 -0.15924549 -0.0673673 -0.0031119555 -0.020728432 -0.051547892 -0.122191004
-0.031779 0.20842777 0.15651888 -0.0022020529 -0.21873882 0.05881704 -0.065912604 -0.043960366
-0.16883792 0.19422396 -0.10051711 0.17029758
00000000: f031 833d eac0 0c3e 4101 fbbc 9b55 463d
00000010: 99e9 2c3e ec98 2a3e 879d e6bd 00bc 24be
00000020: 9b56 c6bc fe86 82bd a9c2 c0ba 97ef 1fbd
00000030: c4f0 5dbe 2f4d 10bd 15b7 35be 6596 563e
00000040: 087f e83d 0de7 653e d8aa a03c 85a8 3c3e
00000050: 5793 03be df10 c1bd 3452 47be 183b dabc
00000060: 572c 2ebd 6058 573e 8550 01be 418d ff3c
00000070: dc2d f83d 9307 20be 3446 b9bd 7645 323e
00000080: c073 103e 6c2c a43d 74c7 163c b91d 0fbe
00000090: dbe0 bb3d a1cd 35be aa48 ba3d 7634 d53d
000000a0: 4892 3f3e 3db5 0d3e 1171 6bbd 4710 30be
000000b0: f158 89bd 5620 143e 2dae 273e c45f 323e
000000c0: 6034 fd3d 5c3e 01be 7581 233e 6561 26be
000000d0: f1f8 05bd 7443 4dbd b50b 42bc 9a42 42be
000000e0: b418 973d ded0 8e3d d3ca 59bd a3f4 67bd
000000f0: 1bfd 55bd 29bc 573e 4f8b 043e c468 01be
00000100: 19f9 313d fdf2 9c3d d40f 4f3e f5c5 333d
00000110: 9382 0fbe d43b 2abe 4a48 00be 26de 6abe
00000120: bc96 bb3d 9cfa 06be 3c93 d9bd 0d08 9bbc
00000130: 899f 99b9 b1b7 d63d 889b a03d ead8 97bd
00000140: ecf3 2abe 29bf 4a3d 29f6 1cbe 2809 133d
00000150: 10c9 413e 2fe0 31bc 9450 a6bc 0c2b 1dbe
00000160: a249 bcbd 5b13 813d 3d5c a03d 9048 923d
00000170: ec95 4a3e 6f65 f5bc edb2 4dbd 802e 1abe
00000180: eace b53c 8b69 d7bd d39e cb3d e63b 3abe
00000190: 1bf1 63be ec42 8e3d 2f43 64be 8ec6 5c3e
000001a0: 6db3 ccbc cc2e 5ebe a5ee 29bd 3402 8f3d
000001b0: ae00 39be 1134 8ebd 4017 713d 44a6 37be
000001c0: 8cf0 67bd 9ca4 2b3d cf0a 2c3e 520e 343e
000001d0: 6916 f0bd 76bf 643e 48f7 923d 78cd 663d
000001e0: 51ef 193d e5e2 103e 4011 23be def7 89bd
000001f0: f3f1 4bbb acce a9bc e223 53bd 473f fabd
00000200: b22a 02bd 176e 553e 7c46 203e 5150 10bb
00000210: 12fd 5fbe 23ea 703d 30fd 86bd c90f 34bd
00000220: d9e3 2cbe a5e2 463e eadb cdbd 7d62 2e3e

conv1.bias f4 [7]
-0.12672423 -0.0629215 -0.08188388 -0.0041306196 0.20406707 0.030325927 0.14211376
00000000: ffc3 01be fddc 80bd bcb2 a7bd 265a 87bb
00000010: f5f6 503e 146e f83c 4586 113e

conv2.weight f4 [15, 7, 1, 5]
-0.060538992 -0.068705074 0.036000226 0.11672208 0.09838929 0.11954904 0.021681692 0.01848515
0.036679048 0.08953413 -0.030548157 0.021465441 0.05487394 -0.0637463 -0.11130042 -0.14050546
-0.13695227 0.15247455 -0.07389669 0.035722636 0.10327973 0.07302105 -0.15341136 -0.080860324
-0.12753274 -0.09752127 -0.07769892 -0.06244302 -0.06456341 0.071051285 0.027695434 -0.15752494
-0.031030025 0.14289044 -0.13011101 -0.121405385 -0.0005423184 0.0037257639 -0.14546363 0.11713097
0.07955541 0.1580182 -0.1562776 -0.15465009 -0.017213682 -0.117396004 -0.013377435 0.15961392
-0.111590154 0.059568394 -0.11550152 -0.06828458 0.070354275 -0.02701684 -0.038161267 0.020363638
0.13222699 -0.091690674 -0.113774195 0.15910944 -0.1006842 0.054426346 -0.058557548 0.06930127
0.14483264 0.008784957 -0.16038339 0.040292054 -0.16245139 0.10399282 -0.07608602 0.032671694
0.07757676 -0.057199247 0.1546647 -0.032700304 -0.13050899 0.14361157 0.009578969 -0.112554274
0.0700685 -0.053850457 -0.08141774 -0.116918795 -0.027903946 -0.15226018 -0.005891986 -0.05637883
-0.03038229 0.16665073 0.03553042 0.095055975 -0.12689573 -0.12268426 0.025103774 -0.03400278
0.04636687 -0.044157498 0.01732884 -0.12680872 0.05679212 -0.098198734 -0.08921342 -0.036110558
0.0024653582 0.15527482 -0.073628485 -0.16484016 0.008315154 0.009005105 0.023252832 -0.023913532
0.017566226 0.11011459 -0.107210055 0.09565437 -0.061743453 -0.090642445 0.007959127 -0.07362005
-0.11692665 0.08903608 -0.14414978 0.15913534 0.15080127 0.09032496 -0.09213057 -0.15950076
0.09075533 -0.04006623 -0.0061741355 -0.108622916 -0.15767898 -0.110729665 0.16527693 0.10574352
-0.02724643 -0.018368883 0.11263723 -0.15008487 -0.024881802 -0.11805497 0.044788055 -0.019624574
0.07084785 0.10458769 0.14842145 -0.12455623 0.023879921 0.123480074 0.08365779 -0.030215621
0.007254158 -0.112828575 0.01619548 0.059948627 0.063218534 -0.110728316 -0.07698007 -0.15239374
0.13924317 0.0045457096 0.166243 0.12773788 -0.1257927 -0.1376376 -0.01464185 -0.120876506
0.020720495 0.10635614 -0.14826271 -0.15551282 0.1675115 -0.12797827 -0.0024598574 -0.07257355
0.0173438 -0.07360889 -0.0035223588 -0.11525103 -0.12267943 -0.13814794 -0.10973581 0.03398239
0.14528385 0.0035736037 0.12353588 0.013228722 0.1539001 -0.08620695 0.041882437 -0.07560765
-0.08617292 0.09015432 -0.08603524 0.08717027 0.065318674 -0.0029749328 -0.013475385 0.12404115
-0.0132551445 -0.05877561 0.10127053 -0.006379767 -0.0014689183 -0.012174376 0.020996872 0.10512364
-0.14702941 -0.10748654 0.021627422 -0.104220994 -0.10087835 0.1478113 0.101818606 0.080578126
0.1520234 -0.024498912 0.024936993 0.024809182 0.022939797 -0.015903734 -0.07775728 -0.03348199
0.052517958 0.06840951 -0.08593459 -0.0550522 -0.05784905 0.03427825 -0.15435095 -0.07739317
-0.07208222 0.1047964 0.11439472 0.1587907 -0.12172563 -0.14142424 -0.07666732 0.052187875
0.09852958 -0.1195429 -0.0290391 -0.105710454 0.06871865 0.061540827 -0.17730723 0.12553339
0.045914356 -0.12250168 -0.09042398 0.12821852 -0.006968531 0.04646988 -0.08988882 -0.014547084
00000000: bcf7 77bd 3fb5 8cbd f974 133d fc0b ef3d
00000010: 5380 c93d 21d6 f43d ce9d b13c 2b6e 973c
00000020: c53c 163d ac5d b73d 2140 fabc 4bd8 af3c
00000030: 7fc3 603d 6c8d 82bd 79f1 e3bd aae0 0fbe
00000040: 373d 0cbe 4a22 1c3e 2657 97bd e651 123d
00000050: 5384 d33d 0f8c 953d de17 1dbe 199a a5bd
00000060: f197 02be 3bb9 c7bd 9d20 9fbd 41c4 7fbd
00000070: d239 84bd 5683 913d 89e1 e23c 384e 21be
00000080: ae32 febc df51 123e d23b 05be 63a3 f8bd
00000090: 5f2a 0eba f22b 743b 6bf4 14be 5de2 ef3d
000000a0: f2ed a23d 86cf 213e 3c07 20be 985c 1ebe
000000b0: b503 8dbc 516d f0bd 072d 5bbc d571 233e
000000c0: 6189 e4bd fdfd 733d 108c ecbd c9d8 8bbd
000000d0: e715 903d 6c52 ddbc fd4e 1cbd a5d1 a63c
000000e0: 8366 073e 52c8 bbbd 7202 e9bd 96ed 223e
000000f0: 8533 cebd 29ee 5e3d 0ada 6fbd d3ed 8d3d
00000100: 024f 143e c8ee 0f3c 8b3b 24be 4809 253d
00000110: a859 26be 30fa d43d fdd2 9bbd c1d2 053d
00000120: 90e0 9e3d c249 6abd 6c60 1e3e c1f0 05bd
00000130: 26a4 05be e90e 133e 1cf1 1c3c db82 e6bd
00000140: 1380 8f3d 4c92 5cbd 58be a6bd 1f73 efbd
00000150: d196 e4bc 18ea 1bbe 9011 c1bb 7ded 66bd
00000160: 48e4 f8bc 7da6 2a3e 5888 113d b5ac c23d
00000170: f4f0 01be e341 fbbd 6ea6 cd3c 8046 0bbd
00000180: 30eb 3d3d 7ede 34bd 36f5 8d3c 25da 01be
00000190: db9e 683d 6b1c c9bd 87b5 b6bd aae8 13bd
000001a0: d991 213b 5d00 1f3e 88ca 96bd dccb 28be
000001b0: 493c 083c 268a 133c b97c be3c 50e6 c3bc
000001c0: 0ce7 8f3c c283 e13d f290 dbbd 70e6 c33d
000001d0: b4e6 7cbd bfa2 b9bd 0067 023c 1cc6 96bd
000001e0: 3d77 efbd 8c58 b63d 009c 13be 60f4 223e
000001f0: a66b 1a3e 4bfc b83d f4ae bcbd 2b54 23be
00000200: eedd b93d 7d1c 24bd 6750 cabb b175 debd
00000210: 9976 21be 3cc6 e2bd 5b3e 293e 0f90 d83d
00000220: e833 dfbc 577a 96bc 59ae e63d d9af 19be
00000230: ecd4 cbbc cec6 f1bd ae73 373d b7c3 a0bc
00000240: ad18 913d 1232 d63d cbfb 173e 5617 ffbd
00000250: d39f c33c 1fe3 fc3d c754 ab3d c086 f7bc
00000260: 4ab4 ed3b ab12 e7bd 62ac 843c b18c 753d
00000270: b878 813d 87c5 e2bd baa7 9dbd 1b0d 1cbe
00000280: c395 0e3e 2df4 943b 9b3b 2a3e b8cd 023e
00000290: cdcf 00be dff0 0cbe 5fe4 6fbc 1a8e f7bd
000002a0: 07be a93c 3fd1 d93d 2ed2 17be c13e 1fbe
000002b0: 2288 2b3e bc0c 03be 8f35 21bb 71a1 94bd
000002c0: 9614 8e3c 42c0 96bd 60d7 66bb bb08 ecbd
000002d0: 5a3f fbbd a776 0dbe 2bbd e0bd 1e31 0b3d
000002e0: 4ac5 143e 1f33 6a3b 6100 fd3d 48bd 583c
000002f0: fd97 1d3e 458d b0bd eb8c 2b3d 2fd8 9abd
00000300: 6e7b b0bd d4a2 b83d 3e33 b0bd 5486 b23d
00000310: ccc5 853d 17f7 42bb dcc7 5cbc 4909 fe3d
00000320: 1b2c 59bc b2be 70bd ec66 cf3d 5d0d d1bb
00000330: b888 c0ba 0977 47bc a201 ac3c 104b d73d
00000340: e18e 16be e721 dcbd fe2b b13c d171 d5bd
00000350: 4f99 cebd d85b 173e 4686 d03d 2506 a53d
00000360: 06ac 1b3e f1b1 c8bc aa48 cc3c a03c cb3c
00000370: 3eec bb3c 8c48 82bc 353f 9fbd 6924 09bd
00000380: 121d 573d 491a 8c3d 79fe afbd 6a7e 61bd
00000390: 20f3 6cbd 5a67 0c3d 2d0e 1ebe 4f80 9ebd
000003a0: d89f 93bd 7f9f d63d c747 ea3d 079a 223e
000003b0: 494b f9bd 84d1 10be c203 9dbd f4c2 553d
000003c0: e0c9 c93d e8d2 f4bd 68e3 edbc b97e d8bd
000003d0: 5dbc 8c3d 3c12 7c3d 0790 35be d38b 003e
000003e0: b110 3c3d 29e2 fabd 3530 b9bd b74b 033e
000003f0: 4658 e4bb 3357 3e3d a117 b8bd e556 6ebc

conv2.bias f4 [15]
0.14507268 -0.032677654 -0.15314884 0.15273727 -0.12405338 -0.057081178 -0.07603559 -0.12444829
-0.09069383 -0.10772288 0.122559234 0.13127422 -0.09892908 -0.0044212933 0.05408283
00000000: ef8d 143e 01d9 05bd 0dd3 1cbe 2967 1c3e
00000010: b30f febd f4cd 69bd 8cb8 9bbd bfde febd
00000020: b0bd b9bd d09d dcbd 5600 fb3d c06c 063e
00000030: 549b cabd 7fe0 90bb f585 5d3d

conv3.weight f4 [15, 15, 1, 3]
-0.029636052 0.036262266 0.04481599 0.1416736 -0.019871183 -0.0815709 0.008994972 0.124382235
0.03232655 0.11232278 -0.08419262 -0.09106726 0.029284682 0.11742483 0.09427969 -0.06488758
-0.12458473 -0.08515548 0.108119674 -0.03343688 -0.14439058 -0.102979004 -0.020245314 0.13854758
0.066045575 0.00398986 -0.093698785 -0.14322841 -0.076271705 0.031560816 -0.078398295 0.1493054
0.06687552 0.0985388 0.03473146 -0.11229567 0.018931286 0.022529922 -0.12677725 0.025967505
-0.120852455 0.04517184 0.0718453 0.118083976 -0.09519705 -0.009708639 0.009249501 0.060173422
-0.040501885 0.044043276 -0.09649479 -0.14059666 -0.0710119 -0.048892647 -0.11591589 -0.06455848
-0.08626853 -0.015102193 -0.043926064 0.02894869 -0.11688379 0.00089110737 -0.02892866 0.062193543
-0.120507374 -0.082310274 0.0849151 0.023209406 0.1136947 0.12554894 -0.005743503 -0.041975126
-0.079771794 -0.037888676 0.13670787 0.14628816 -0.1100341 0.07092494 0.0010669441 0.13922475
0.04458092 0.1261257 0.1143021 -0.040270045 -0.042974383 -0.06359483 0.093213946 0.10289396
-0.0417667 -0.13726252 -0.11750879 -0.09441731 0.01714131 -0.12679268 0.00090546906 0.07096556
-0.09816192 -0.08550055 -0.031021547 -0.056717265 0.05262498 -0.067259915 -0.02856433 0.14867163
-0.025548114 0.03565961 0.121088676 -0.08994435 -0.023054397 -0.07339905 0.15393652 -0.023799786
0.10471679 0.0024663387 -0.0013209875 -0.041492734 -0.10961698 -0.14641888 -0.00495845 0.07036236
-0.13798776 0.04665651 -0.10968051 0.13219732 -0.0022876102 0.062177107 0.098313436 -0.079242446
-0.12753275 -0.10330802 -0.14269036 0.037193127 -0.15626478 -0.010799293 0.0526347 0.06269882
0.13127793 0.029399117 -0.14127468 0.024612168 0.061830796 0.10378477 -0.0072983955 -0.09688422
-0.12469574 -0.13848169 0.057211123 0.020568611 -0.05673047 -0.0010418412 -0.1154761 -0.091516145
0.13817956 -0.0576878 -0.07177445 -0.04008903 -0.08534493 0.006305627 0.14114279 0.13533387
-0.1392224 0.04585522 0.0497697 0.13351701 -0.070056066 0.07585189 0.07575919 -0.010404348
-0.14455077 0.054709703 0.04925301 -0.029388683 0.12773104 -0.113781266 -0.11744048 -0.13270411
-0.039934747 -0.060698725 -0.13602641 -0.14417413 0.015188486 -0.064919256 -0.048546027 0.030676391
-0.03663742 0.09770774 -0.028786577 -0.024274409 -0.055608172 0.0680231 0.1271791 -0.093052
0.050401784 0.0900259 -0.020343706 -0.11868824 -0.10315827 -0.121943064 0.046359796 0.000357332
0.07030597 -0.10970027 -0.047004614 0.11902642 -0.059977632 -0.009503416 0.048681132 0.051623072
0.04160468 -0.13726892 0.005414116 0.0837286 0.027066087 0.038587324 -0.0077976882 0.08568146
0.08515591 -0.07705752 -0.1284487 -0.13502966 -0.12639675 0.09200747 -0.127347 -0.0461862
-0.08442227 0.0063701198 0.10016912 0.0664952 0.011010779 -0.002694958 -0.074411385 -0.1490906
-0.11419958 0.11738854 -0.12060309 -0.12045664 -0.09225197 -0.1477634 0.09488046 -0.120890185
-0.06445851 -0.08831774 -0.08522674 0.09823786 0.113117404 -0.10627752 -0.04272431 -0.09144622
0.13427766 -0.13061641 0.079520844 0.08866808 0.1044365 0.06288496 0.10266008 0.09902471
00000000: 4ec7 f2bc be87 143d f990 373d e212 113e
00000010: e4c8 a2bc a50e a7bd a65f 133c 1dbc fe3d
00000020: d868 043d 7c09 e63d 2e6d acbd 7981 babd
00000030: 6ee6 ef3c 6e7c f03d b615 c13d c8e3 84bd
00000040: 4726 ffbd ff65 aebd d96d dd3d 1cf5 08bd
00000050: 20db 13be a8e6 d2bd 80d9 a5bc 6bdf 0d3e
00000060: e742 873d 5fbd 823b 26e5 bfbd 78aa 12be
00000070: 5734 9cbd ea45 013d 498f a0bd 84e3 183e
00000080: 08f6 883d b6ce c93d 9342 0e3d 46fb e5bd
00000090: c915 9b3c ac90 b83c e5d1 01be ceb9 d43c
000000a0: 7e81 f7bd 1b06 393d a123 933d 03d6 f13d
000000b0: acf6 c2bd fc10 1fbc 388b 173c 6878 763d
000000c0: 4ee5 25bd b966 343d 0f9f c5bd 92f8 0fbe
000000d0: b06e 91bd a843 48bd 4f65 edbd 3d37 84bd
000000e0: 8ead b0bd 306f 77bc d1eb 33bd ce25 ed3c
000000f0: c560 efbd 3499 693a ccfb ecbc a8be 7e3d
00000100: 92cc f6bd 4a92 a8bd f8e7 ad3d a721 be3c
00000110: c4d8 e83d e78f 003e ff33 bcbb 1cee 2bbd
00000120: 655f a3bd 2831 1bbd 26fd 0b3e 90cc 153e
00000130: 8f59 e1bd 1841 913d b4d8 8b3a ef90 0e3e
00000140: 7c9a 363d 1827 013e 3817 ea3d 34f2 24bd
00000150: e805 30bd 023e 82bd f4e6 be3d 12ba d23d
00000160: 8f13 2bbd 8c8e 0cbe 73a8 f0bd dd5d c1bd
00000170: ef6b 8c3c f1d5 01be 005d 6d3a 6456 913d
00000180: 1e09 c9bd ea1a afbd e620 febc 5d50 68bd
00000190: 4b8d 573d 91bf 89bd beff e9bc 603d 183e
000001a0: 474a d1bc d00f 123d 57fd f73d be34 b8bd
000001b0: 93dc bcbc 3e52 96bd 89a1 1d3e c5f7 c2bc
000001c0: c275 d63d 4ca2 213b fc24 adba 49f4 29bd
000001d0: de7e e0bd d5ee 15be 7e7a a2bb 241a 903d
000001e0: aa4c 0dbe e61a 3f3d 2da0 e0bd bc5e 073e
000001f0: bbeb 15bb 6cad 7e3d 8e58 c93d dd49 a2bd
00000200: f297 02be 2893 d3bd 6c1d 12be d257 183d
00000210: e003 20be 85ef 30bc 7c97 573d 3d68 803d
00000220: b96d 063e 6bd6 f03c 4faa 10be 759f c93c
00000230: 4a42 7d3d 1c8d d43d 6127 efbb 3c6b c6bd
00000240: 7b60 ffbd 25ce 0dbe 3656 6a3d 817f a83c
00000250: 365e 68bd 648e 88ba bc7e ecbd d16c bbbd
00000260: f17e 0d3e 0b4a 6cbd 7cfe 92bd 6534 24bd
00000270: 53c9 aebd 6f9f ce3b bc87 103e f694 0a3e
00000280: 5190 0ebe afd2 3b3d 50db 4b3d afb8 083e
00000290: 8e79 8fbd 3c58 9b3d a227 9b3d 0077 2abc
000002a0: 1e05 14be 4817 603d 86bd 493d 89c0 f0bc
000002b0: edcb 023e 2706 e9bd a284 f0bd 96e3 07be
000002c0: 9e92 23bd 3a9f 78bd 824a 0bbe 62a2 13be
000002d0: 21d9 783c 63f4 84bd 33d8 46bd 0e4d fb3c
000002e0: 1f11 16bd ff1a c83d d4d1 ebbc 20db c6bc
000002f0: 65c5 63bd b24f 8b3d 3d3b 023e 0c92 bebd
00000300: 1a72 4e3d 805f b83d d8a7 a6bc d212 f3bd
00000310: a544 d3bd 49bd f9bd c5e3 3d3d 4a58 bb39
00000320: 94fc 8f3d 89aa e0bd e987 40bd 20c4 f33d
00000330: 1bab 75bd 37b4 1bbc de65 473d b772 533d
00000340: ab69 2a3d 3990 0cbe e668 b13b e679 ab3d
00000350: b3b9 dd3c be0d 1e3d c083 ffbb c379 af3d
00000360: 3966 ae3d 55d0 9dbd 0e88 03be 3745 0abe
00000370: 266e 01be 6a6e bc3d 4167 02be be2d 3dbd
00000380: 95e5 acbd 70bc d03b 7825 cd3d a32e 883d
00000390: 8e66 343c e49d 30bb ff64 98bd 35ab 18be
000003a0: 78e1 e9bd 6769 f03d c1fe f6bd f9b1 f6bd
000003b0: 9aee bcbd 4a4f 17be b050 c23d 4695 f7bd
000003c0: d302 84bd eedf b4bd 5b8b aebd ee30 c93d
000003d0: 19aa e73d 07a8 d9bd b0ff 2ebd 2848 bbbd
000003e0: 1580 093e 4fc0 05be d3db a23d 9c97 b53d
000003f0: cee2 d53d d4c9 803d 733f d23d 78cd ca3d

conv3.bias f4 [15]
0.089045785 -0.06848889 0.100544594 0.09342504 -0.022842368 -0.01829075 -0.078002505 0.14992084
-0.065542914 -0.121896125 -0.062611684 0.10007981 -0.13925862 -0.12131787 0.082873635
00000000: a35d b63d e743 8cbd 53ea cd3d a155 bf3d
00000010: eb1f bbbc 7cd6 95bc c7bf 9fbd d984 193e
00000020: 5d3b 86bd ada4 f9bd 8e3a 80bd a5f6 cc3d
00000030: d099 0ebe 8175 f8bd a7b9 a93d

batchnorm1.weight f4 [30]
1.0 1.0 1.0 1.0 1.0 1.0 1.0 1.0
1.0 1.0 1.0 1.0 1.0 1.0 1.0 1.0
1.0 1.0 1.0 1.0 1.0 1.0 1.0 1.0
1.0 1.0 1.0 1.0 1.0 1.0
00000000: 0000 803f 0000 803f 0000 803f 0000 803f
00000010: 0000 803f 0000 803f 0000 803f 0000 803f
00000020: 0000 803f 0000 803f 0000 803f 0000 803f
00000030: 0000 803f 0000 803f 0000 803f 0000 803f
00000040: 0000 803f 0000 803f 0000 803f 0000 803f
00000050: 0000 803f 0000 803f 0000 803f 0000 803f
00000060: 0000 803f 0000 803f 0000 803f 0000 803f
00000070: 0000 803f 0000 803f

batchnorm1.bias f4 [30]
0.0 0.0 0.0 0.0 0.0 0.0 0.0 0.0
0.0 0.0 0.0 0.0 0.0 0.0 0.0 0.0
0.0 0.0 0.0 0.0 0.0 0.0 0.0 0.0
0.0 0.0 0.0 0.0 0.0 0.0
00000000: 0000 0000 0000 0000 0000 0000 0000 0000
00000010: 0000 0000 0000 0000 0000 0000 0000 0000
00000020: 0000 0000 0000 0000 0000 0000 0000 0000
00000030: 0000 0000 0000 0000 0000 0000 0000 0000
00000040: 0000 0000 0000 0000 0000 0000 0000 0000
00000050: 0000 0000 0000 0000 0000 0000 0000 0000
00000060: 0000 0000 0000 0000 0000 0000 0000 0000
00000070: 0000 0000 0000 0000

batchnorm1.running_mean f4 [30]
0.0 0.0 0.0 0.0 0.0 0.0 0.0 0.0
0.0 0.0 0.0 0.0 0.0 0.0 0.0 0.0
0.0 0.0 0.0 0.0 0.0 0.0 0.0 0.0
0.0 0.0 0.0 0.0 0.0 0.0
00000000: 0000 0000 0000 0000 0000 0000 0000 0000
00000010: 0000 0000 0000 0000 0000 0000 0000 0000
00000020: 0000 0000 0000 0000 0000 0000 0000 0000
00000030: 0000 0000 0000 0000 0000 0000 0000 0000
00000040: 0000 0000 0000 0000 0000 0000 0000 0000
00000050: 0000 0000 0000 0000 0000 0000 0000 0000
00000060: 0000 0000 0000 0000 0000 0000 0000 0000
00000070: 0000 0000 0000 0000

batchnorm1.running_var f4 [30]
1.0 1.0 1.0 1.0 1.0 1.0 1.0 1.0
1.0 1.0 1.0 1.0 1.0 1.0 1.0 1.0
1.0 1.0 1.0 1.0 1.0 1.0 1.0 1.0
1.0 1.0 1.0 1.0 1.0 1.0
00000000: 0000 803f 0000 803f 0000 803f 0000 803f
00000010: 0000 803f 0000 803f 0000 803f 0000 803f
00000020: 0000 803f 0000 803f 0000 803f 0000 803f
00000030: 0000 803f 0000 803f 0000 803f 0000 803f
00000040: 0000 803f 0000 803f 0000 803f 0000 803f
00000050: 0000 803f 0000 803f 0000 803f 0000 803f
00000060: 0000 803f 0000 803f 0000 803f 0000 803f
00000070: 0000 803f 0000 803f

batchnorm2.weight f4 [50]
1.0 1.0 1.0 1.0 1.0 1.0 1.0 1.0
1.0 1.0 1.0 1.0 1.0 1.0 1.0 1.0
1.0 1.0 1.0 1.0 1.0 1.0 1.0 1.0
1.0 1.0 1.0 1.0 1.0 1.0 1.0 1.0
1.0 1.0 1.0 1.0 1.0 1.0 1.0 1.0
1.0 1.0 1.0 1.0 1.0 1.0 1.0 1.0
1.0 1.0
00000000: 0000 803f 0000 803f 0000 803f 0000 803f
00000010: 0000 803f 0000 803f 0000 803f 0000 803f
00000020: 0000 803f 0000 803f 0000 803f 0000 803f
00000030: 0000 803f 0000 803f 0000 803f 0000 803f
00000040: 0000 803f 0000 803f 0000 803f 0000 803f
00000050: 0000 803f 0000 803f 0000 803f 0000 803f
00000060: 0000 803f 0000 803f 0000 803f 0000 803f
00000070: 0000 803f 0000 803f 0000 803f 0000 803f
00000080: 0000 803f 0000 803f 0000 803f 0000 803f
00000090: 0000 803f 0000 803f 0000 803f 0000 803f
000000a0: 0000 803f 0000 803f 0000 803f 0000 803f
000000b0: 0000 803f 0000 803f 0000 803f 0000 803f
000000c0: 0000 803f 0000 803f

batchnorm2.bias f4 [50]
0.0 0.0 0.0 0.0 0.0 0.0 0.0 0.0
0.0 0.0 0.0 0.0 0.0 0.0 0.0 0.0
0.0 0.0 0.0 0.0 0.0 0.0 0.0 0.0
0.0 0.0 0.0 0.0 0.0 0.0 0.0 0.0
0.0 0.0 0.0 0.0 0.0 0.0 0.0 0.0
0.0 0.0 0.0 0.0 0.0 0.0 0.0 0.0
0.0 0.0
00000000: 0000 0000 0000 0000 0000 0000 0000 0000
00000010: 0000 0000 0000 0000 0000 0000 0000 0000
00000020: 0000 0000 0000 0000 0000 0000 0000 0000
00000030: 0000 0000 0000 0000 0000 0000 0000 0000
00000040: 0000 0000 0000 0000 0000 0000 0000 0000
00000050: 0000 0000 0000 0000 0000 0000 0000 0000
00000060: 0000 0000 0000 0000 0000 0000 0000 0000
00000070: 0000 0000 0000 0000 0000 0000 0000 0000
00000080: 0000 0000 0000 0000 0000 0000 0000 0000
00000090: 0000 0000 0000 0000 0000 0000 0000 0000
000000a0: 0000 0000 0000 0000 0000 0000 0000 0000
000000b0: 0000 0000 0000 0000 0000 0000 0000 0000
000000c0: 0000 0000 0000 0000

batchnorm2.running_mean f4 [50]
0.0 0.0 0.0 0.0 0.0 0.0 0.0 0.0
0.0 0.0 0.0 0.0 0.0 0.0 0.0 0.0
0.0 0.0 0.0 0.0 0.0 0.0 0.0 0.0
0.0 0.0 0.0 0.0 0.0 0.0 0.0 0.0
0.0 0.0 0.0 0.0 0.0 0.0 0.0 0.0
0.0 0.0 0.0 0.0 0.0 0.0 0.0 0.0
0.0 0.0
00000000: 0000 0000 0000 0000 0000 0000 0000 0000
00000010: 0000 0000 0000 0000 0000 0000 0000 0000
00000020: 0000 0000 0000 0000 0000 0000 0000 0000
00000030: 0000 0000 0000 0000 0000 0000 0000 0000
00000040: 0000 0000 0000 0000 0000 0000 0000 0000
00000050: 0000 0000 0000 0000 0000 0000 0000 0000
00000060: 0000 0000 0000 0000 0000 0000 0000 0000
00000070: 0000 0000 0000 0000 0000 0000 0000 0000
00000080: 0000 0000 0000 0000 0000 0000 0000 0000
00000090: 0000 0000 0000 0000 0000 0000 0000 0000
000000a0: 0000 0000 0000 0000 0000 0000 0000 0000
000000b0: 0000 0000 0000 0000 0000 0000 0000 0000
000000c0: 0000 0000 0000 0000

batchnorm2.running_var f4 [50]
1.0 1.0 1.0 1.0 1.0 1.0 1.0 1.0
1.0 1.0 1.0 1.0 1.0 1.0 1.0 1.0
1.0 1.0 1.0 1.0 1.0 1.0 1.0 1.0
1.0 1.0 1.0 1.0 1.0 1.0 1.0 1.0
1.0 1.0 1.0 1.0 1.0 1.0 1.0 1.0
1.0 1.0 1.0 1.0 1.0 1.0 1.0 1.0
1.0 1.0
00000000: 0000 803f 0000 803f 0000 803f 0000 803f
00000010: 0000 803f 0000 803f 0000 803f 0000 803f
00000020: 0000 803f 0000 803f 0000 803f 0000 803f
00000030: 0000 803f 0000 803f 0000 803f 0000 803f
00000040: 0000 803f 0000 803f 0000 803f 0000 803f
00000050: 0000 803f 0000 803f 0000 803f 0000 803f
00000060: 0000 803f 0000 803f 0000 803f 0000 803f
00000070: 0000 803f 0000 803f 0000 803f 0000 803f
00000080: 0000 803f 0000 803f 0000 803f 0000 803f
00000090: 0000 803f 0000 803f 0000 803f 0000 803f
000000a0: 0000 803f 0000 803f 0000 803f 0000 803f
000000b0: 0000 803f 0000 803f 0000 803f 0000 803f
000000c0: 0000 803f 0000 803f

fc1.weight f4 [2, 60]
-0.07479218 0.011751873 -0.056581847 -0.09590798 0.04689122 0.052609924 0.029386973 0.01477102
-0.06711419 0.056979686 -0.051904395 -0.05012234 -0.12386713 0.08629333 0.02876256 -0.095554605
0.058489423 -0.032800138 -0.026535412 -0.09429486 -0.07238681 0.07423368 -0.002580782 -0.0066173235
-0.07217209 0.025243662 0.12685427 -0.08234203 -0.03228536 -0.026096737 0.03869771 0.057861447
-0.01787114 -0.039903153 0.11172108 0.060477287 -0.018454818 -0.06903894 0.098189466 -0.112814344
-0.024680655 -0.040229302 0.09964833 0.0764694 -0.12149621 0.070025004 0.09969268 0.01698439
0.102293804 0.0044385944 -0.11880584 -0.07010522 0.07104284 0.03911558 0.018630637 -0.012657972
0.05357358 0.029708404 0.021356555 -0.0025793044 0.061557896 -0.05222841 0.05253005 -0.10872723
-0.009347403 -0.022397537 0.044860672 -0.109330975 -0.07109953 -0.03540211 0.11384574 -0.09639869
-0.03433628 -0.024229253 0.094386965 0.001149168 0.06867144 -0.06179483 -0.065744124 0.06439947
0.058915325 0.08089378 0.01961547 0.11030398 0.085845076 -0.028193286 0.06613315 -0.06530822
0.0068401587 -0.14476009 0.012022127 0.06158575 0.0013209707 0.0565642 0.10530062 0.07189243
0.011145637 -0.10918974 0.105139986 0.024279123 -0.10835081 0.09018588 0.02164552 0.024080288
-0.004353464 -0.08711915 0.08428949 -0.08719743 -0.13851301 0.043503582 0.08056219 0.007882297
0.09453425 0.05506356 0.107676566 -0.01635724 0.06804677 0.06510817 -0.052517094 0.017117469
00000000: a42c 99bd ee8a 403c 5ec2 67bd 676b c4bd
00000010: 0211 403d 817d 573d f3bc f03c 2602 723c
00000020: 2a73 89bd 8863 693d b499 54bd 154d 4dbd
00000030: 0dae fdbd 8fba b03d 769f eb3c 22b2 c3bd
00000040: 9b92 6f3d 7059 06bd cb60 d9bc aa1d c1bd
00000050: 893f 94bd d407 983d 5622 29bb 22d6 d8bb
00000060: f6ce 93bd cccb ce3c 16e6 013e f0a2 a8bd
00000070: a73d 04bd d3c8 d5bc 7d81 1e3d 2000 6d3d
00000080: 7f66 92bc 7d71 23bd 06ce e43d 08b7 773d
00000090: 8f2e 97bc 4a64 8dbd 8f17 c93d 350b e7bd
000000a0: 162f cabc 7bc7 24bd 6c14 cc3d fd9b 9c3d
000000b0: 01d3 f8bd 4569 8f3d ad2b cc3d d922 8b3c
000000c0: 6a7f d13d a171 913b 7a50 f3bd 5393 8fbd
000000d0: e97e 913d a937 203d 479f 983c 6263 4fbc
000000e0: f86f 5b3d 0a5f f33c f1f3 ae3c 8c09 29bb
000000f0: 2224 7c3d 75ed 55bd c029 573d 62ac debd
00000100: da25 19bc 0a7b b7bc d3bf 373d ebe8 dfbd
00000110: a19c 91bd ce01 11bd f527 e93d ad6c c5bd
00000120: 33a4 0cbd 6d7c c6bc f44d c13d ae9f 963a
00000130: 9da3 8c3d 931c 7dbd dba4 86bd dfe3 833d
00000140: 3251 713d a3ab a53d 9fb0 a03c 0ee7 e13d
00000150: 8bcf af3d 9bf5 e6bc d170 873d 51c0 85bd
00000160: 6923 e03b fd3b 14be 75f8 443c 5741 7c3d
00000170: 6c24 ad3a ddaf 673d daa7 d73d 573c 933d
00000180: 319c 363c df9e dfbd a253 d73d 03e5 c63c
00000190: 08e7 ddbd 60b3 b83d f251 b13c 0644 c53c
000001a0: 81a7 8ebb 866b b2bd f89f ac3d 9194 b2bd
000001b0: 5bd6 0dbe d030 323d cafd a43d c024 013c
000001c0: 2c9b c13d 548a 613d 8885 dc3d 9eff 85bc
000001d0: 1b5c 8b3d 6f57 853d 2a1c 57bd ef39 8c3c

fc1.bias f4 [2]
0.07987186 0.036940835
00000000: dc93 a33d 464f 173d

fc2.weight f4 [4, 512]
0.035698105 -0.0045137797 -0.029274242 -0.011058764 -0.01643773 0.012077158 0.04099793 0.0145180775
0.040533297 0.010557053 -0.032018106 -0.029317284 -0.014887658 -0.004824576 -0.0056588096 -0.00372634
0.026959738 -0.030988513 -0.024132695 0.040799633 -0.026999043 -0.01014708 -0.0016322209 0.013460665
-0.009617411 0.03761823 0.026878562 -0.0020480575 0.024585994 0.025929425 0.012717064 0.03918366
0.02440518 0.030620871 -0.010883238 -0.00533165 0.030688353 -0.010351487 0.028621672 -0.012961299
0.007635107 -0.00068004994 0.027373498 0.017583195 -0.036581174 -0.04225943 -0.011003967 -0.0287987
0.019096768 -0.034256574 0.0040309457 0.035365548 -0.03683463 0.020873701 0.042186208 -0.02284014
0.029975908 0.024085158 -0.033454645 0.03740821 0.011962224 0.04275 0.023472227 -0.009985794
0.037796088 -0.013084673 0.029240292 -0.041525863 0.0037079637 -0.03174209 -0.017604828 0.028526872
0.011901969 0.036516957 -0.009953752 -0.026988814 -0.042741433 0.00031625942 -0.00840415 -0.016623065
-0.014634992 -0.008287351 -0.022095053 0.012248896 0.023932634 0.03744488 -0.024364728 -0.03294383
0.0125054335 0.017808992 0.010358252 0.0024378686 -0.0074050273 0.019792518 -0.03952524 0.016381005
0.0069782324 -0.025769336 0.0098345345 -0.03445541 0.041773174 -0.040004987 0.021053916 -0.025325794
-0.005598661 0.0030376918 -0.012616432 0.04258233 -0.037261076 -0.009444476 -0.028435767 0.01960037
-0.034720346 -0.040583152 -0.016381932 -0.016808432 0.01061776 0.009341854 -0.021991314 0.043828186
0.034756877 0.03772592 -0.014559755 0.008863271 -0.012579748 -0.026985593 0.038218528 -0.017060027
-0.038103674 -0.024967866 -0.011022749 0.018973779 0.008633392 -0.032867845 -0.029012278 0.01910376
0.016113995 -0.028459253 0.008057787 -0.043778043 0.006470521 -0.028660836 -0.014570318 -0.0047445023
0.01916798 -0.029646272 0.026741453 -0.0094034625 0.0072217677 -0.005672813 -0.018511808 0.0335372
-0.00578476 0.004478951 -0.018613543 -0.04040212 -0.038135104 -0.021155732 0.024813551 -0.017366413
0.014518493 -0.006081137 -4.1651623e-05 -0.006336352 -0.013450123 -0.042198367 -0.017783025 -0.0044238176
-0.016930226 0.0014280879 -0.033430275 -0.022568204 -0.026847405 -0.034983274 0.020035174 0.011069374
0.0247194 -0.04409184 -0.04207615 -0.028861176 -0.019826293 0.043998737 -0.0011812128 0.04181704
0.03947696 0.020261507 0.016942654 -0.0063333646 0.04031761 0.028757842 0.028322345 0.006257732
0.03886907 0.0023076716 0.0119346175 0.028251432 0.021723697 0.007786446 -0.03506907 -0.021816105
-0.026524048 0.022379339 0.0016071752 -0.002983923 -0.041561976 0.006173475 -0.042685036 -0.044031814
0.021180961 -0.004482602 0.0031150102 -0.029284721 -0.017154463 0.03676126 0.013959025 0.042328525
0.0373501 0.003038693 0.0014388829 0.028384816 0.04222965 -0.03288354 -0.026624849 0.028349075
0.039431214 0.019892337 -0.00065646874 -0.03800395 -0.01912742 0.03217068 -0.026369875 -0.041862063
-0.039349124 0.036645487 0.034456138 0.003700783 0.014841928 -0.04008896 0.01943771 0.017106794
-0.010756856 -0.020485217 0.016731894 -0.030833839 -0.010105102 0.013149706 -0.001784919 0.03776326
0.026045846 -0.033285633 0.031179337 0.016166393 0.035341997 0.016753878 -0.009408678 -0.0027978974
00000000: 2d38 123d 54e8 93bb 89d0 efbc d12f 35bc
00000010: 6ba8 86bc 46df 453c 72ed 273d 3bdd 6d3c
00000020: 3e06 263d 7df7 2c3c 6b25 03bd cd2a f0bc
00000030: 5deb 73bc 7a17 9ebb 896d b9bb 9c35 74bb
00000040: abda dc3c 9fdb fdbc eeb1 c5bc 841d 273d
00000050: 192d ddbc f03f 26bc 3ff0 d5ba 1f8a 5c3c
00000060: 5892 1dbc 9315 1a3d 6e30 dc3c b438 06bb
00000070: 9168 c93c f269 d43c 3b5b 503c 0c7f 203d
00000080: 5fed c73c 9fd8 fa3c 9c4f 32bc 1fb5 aebb
00000090: 2466 fb3c 4999 29bc ff77 ea3c a15b 54bc
000000a0: eb2f fa3b 6145 32ba 633e e03c a20a 903c
000000b0: 24d6 15bd 3918 2dbd fc49 34bc 40eb ebbc
000000c0: d370 9c3c 9f50 0cbd 0616 843b 77db 103d
000000d0: e9df 16bd 53ff aa3c 72cb 2c3d 3f1b bbbc
000000e0: 0990 f53c 3d4e c53c bd07 09bd 5a39 193d
000000f0: 34fd 433c a01a 2f3d d448 c03c 759b 23bc
00000100: 12d0 1a3d 1961 56bc 5689 ef3c 0617 2abd
00000110: 4f01 733b fe03 02bd 0038 90bc 30b1 e93c
00000120: 7a00 433c ce92 153d 1015 23bc a517 ddbc
00000130: a411 2fbd 9fcf a539 8fb1 09bc 182d 88bc
00000140: 9bc7 6fbc abc7 07bc af00 b5bc 98af 483c
00000150: 5f0e c43c cd5f 193d 8a98 c7bc 1cf0 06bd
00000160: 97e3 4c3c 2ae4 913c a8b5 293c a6c4 1f3b
00000170: dfa5 f2bb eb23 a23c 38e5 21bd 7531 863c
00000180: a8a9 e43b 371a d3bc 0721 213c 1e21 0dbd
00000190: 591a 2b3d 45dc 23bd 4379 ac3c 0a78 cfbc
000001a0: f974 b7bb 0314 473b 27b5 4ebc cf6a 2e3d
000001b0: 129f 18bd 01bd 1abc 20f2 e8bc f590 a03c
000001c0: ec36 0ebd 853a 26bd 6733 86bc d6b1 89bc
000001d0: 1df6 2d3c 930e 193c 2127 b4bc 2f85 333d
000001e0: 3a5d 0e3d 7f86 1a3d 0a8c 6ebc 4137 113c
000001f0: 4a1b 4ebc e410 ddbc 088b 1c3d 78c1 8bbc
00000200: 9912 1cbd 6989 ccbc c398 34bc e66e 9b3c
00000210: 1273 0d3c 6fa0 06bd 28ab edbc 7d7f 9c3c
00000220: 7f01 843c 6123 e9bc cf04 043c 9b50 33bd
00000230: aa06 d43b 21ca eabc 58b8 6ebc c577 9bbb
00000240: 2b06 9d3c bddc f2bc e410 db3c fb10 1abc
00000250: 94a4 ec3b 01e3 b9bb 13a6 97bc 4e5e 093d
00000260: 168e bdbb 2ac4 923b 6e7b 98bc b27c 25bd
00000270: 8e33 1cbd c94e adbc ca45 cb3c 0244 8ebc
00000280: f9de 6d3c 4644 c7bb 17b3 2eb8 2ca1 cfbb
00000290: e85d 5cbc 32d8 2cbd b5ad 91bc acf5 90bb
000002a0: 42b1 8abc ae2e bb3a 2fee 08bd f4e0 b8bc
000002b0: 17ef dbbc 9f4a 0fbd ce20 a43c 525c 353c
000002c0: 5780 ca3c a599 34bd 0b58 2cbd 466e ecbc
000002d0: c06a a2bc 0538 343d edd2 9aba 5848 2b3d
000002e0: 98b2 213d 76fb a53c 52cb 8a3c 1d88 cfbb
000002f0: 1424 253d 9195 eb3c 4304 e83c a90d cd3b
00000300: 2d35 1f3d 4e3c 173b 6a89 433c 8c6f e73c
00000310: e5f5 b13c 7125 ff3b 96a4 0fbd b0b7 b2bc
00000320: f648 d9bc e054 b73c daa7 d23a ec8d 43bb
00000330: e43c 2abd dd4a ca3b 81d6 2ebd b45a 34bd
00000340: b283 ad3c cae2 92bb 3325 4c3b 83e6 efbc
00000350: 8487 8cbc fa92 163d 65b4 643c ad60 2d3d
00000360: 6bfc 183d cf24 473b e698 bc3a 4687 e83c
00000370: fff8 2c3d e4b0 06bd 5b1c dabc 523c e83c
00000380: a082 213d 41f5 a23c df16 2cba 08aa 1bbd
00000390: 1bb1 9cbc 67c5 033d a305 d8bc 8e77 2bbd
000003a0: 8c2c 21bd 9419 163d e121 0d3d d688 723b
000003b0: 8f2b 733c 5234 24bd d53b 9f3c 8c23 8c3c
000003c0: 863d 30bc 9dd0 a7bc 5311 893c 3f97 fcbc
000003d0: df8f 25bc dd71 573c f1f3 e9ba a6ad 1a3d
000003e0: 195e d53c 8456 08bd cf6b ff3c 626f 843c
000003f0: c5c2 103d 6e3f 893c db26 1abc ee5c 37bb

fc2.bias f4 [4]
-0.029575756 0.027166147 -0.008467307 0.043750692
00000000: db48 f2bc 8a8b de3c 76ba 0abc ed33 333d
